2048dqn_model.pth (torch, 665544 bytes, 8 tensors)

conv1.weight f4 [64, 1, 2, 2]
0	0xbdf9cdd5	-0.121974625
1	0xbf3d910b	-0.74049443
2	0x3eb01c86	0.34396762
3	0xbed599b4	-0.4171883
4	0xbec2b098	-0.38025355
5	0xbd85c1c1	-0.06531096
6	0x3db711cb	0.089389406
7	0x3ebcce8d	0.36876336
8	0xbea82150	-0.32837915
9	0x3ea805ad	0.3281683
10	0xbf351d8b	-0.70748204
11	0xbd33eaba	-0.043925025
12	0x3e3aa521	0.18227054
13	0x3d1764cf	0.036961373
14	0x3e397d9c	0.18114322
15	0xbea93750	-0.33050013
16	0x3d5baa6c	0.053629324
17	0x3d8de713	0.069288395
18	0xbdb01fa2	-0.085997835
19	0xbe5b9429	-0.21443237
20	0x3e81fd9d	0.25388804
21	0xbee551ac	-0.44788873
22	0x3e207f03	0.15673451
23	0xbf6bfaf6	-0.9217981
24	0xbec09e37	-0.37620708
25	0x3ed6724f	0.41884086
26	0x3ca5ab9f	0.020223437
27	0xbebddc14	-0.3708197
28	0x3d9d1079	0.076691575
29	0xbf2af0ba	-0.6677357
30	0x3eb87110	0.3602376
31	0x3ea649a3	0.32478055
32	0x3de4cf8a	0.111723974
33	0xbe9eff5a	-0.31054193
34	0xbd4605de	-0.04834544
35	0xbe8d556f	-0.27604243
36	0x3e5859d0	0.21128011
37	0xbe17f9c5	-0.14841373
38	0xbe1ab4e1	-0.15108062
39	0xbdccbac1	-0.09996558
40	0x3e034a9a	0.12821427
41	0xbe0722d0	-0.13196874
42	0xbf01faa1	-0.50773054
43	0xbd6a8f03	-0.057265293
44	0x3c97ad02	0.018515114
45	0x3d1716d9	0.036887024
46	0xbbe46e8c	-0.006971186
47	0x3e683b00	0.22678757
48	0xbe849827	-0.25897333
49	0xbec50e60	-0.3848753
50	0x3eb8fad0	0.36128855
51	0x3ea13ac3	0.31490144
52	0xbec44662	-0.38334948
53	0x3ead20ce	0.3381409
54	0x3e739ee8	0.23791087
55	0x3e0bcae8	0.13651621
56	0xbef86946	-0.48517817
57	0x3edf579f	0.43621537
58	0xbe1f1ca1	-0.15538265
59	0x3de7ede4	0.11324671
60	0x3e8136c3	0.25237092
61	0xbe869e72	-0.2629276
62	0x3de82fc4	0.113372356
63	0x3dc9efc7	0.09860187
64	0x3e7609f8	0.2402724
65	0xbed4df97	-0.41576836
66	0x3e4c6f78	0.19964397
67	0xbc0217cf	-0.007940247
68	0xbd3e0b22	-0.046397336
69	0xbec5a9df	-0.38606164
70	0x3eed986a	0.46405345
71	0xbf342fec	-0.7038562
72	0x3d48f1ba	0.049058653
73	0xbf2e1633	-0.68002623
74	0x3e0496be	0.12948129
75	0xbdea088d	-0.11427412
76	0xbec1bd95	-0.37839952
77	0x3d64a7ad	0.05582397
78	0xbf11b816	-0.5692152
79	0x3ef26436	0.4734208
80	0x3e110753	0.1416295
81	0x3e16ad42	0.1471453
82	0xbf1c0320	-0.6094227
83	0xbf169971	-0.58827883
84	0x3c8ddaf6	0.017316323
85	0x3d4d9f74	0.050200894
86	0xbd2d61d4	-0.042329624
87	0xbe2a5e8c	-0.1663763
88	0x3c2c8f60	0.01053223
89	0x3d851156	0.06497447
90	0xbcc77535	-0.02434788
91	0x3e0deee8	0.13860667
92	0xbf017e43	-0.50583285
93	0xbc8d4242	-0.017243508
94	0x3ec05f1c	0.37572563
95	0x3c2fcc9c	0.010729935
96	0x3df7649f	0.12079739
97	0xbef2f8dd	-0.47455493
98	0x3e94d536	0.29068917
99	0xbd246f44	-0.040145174
100	0xbf3ec342	-0.7451669
101	0xbf27d63c	-0.6556127
102	0x3e923db4	0.285627
103	0x3e9539dc	0.29145706
104	0x3d31d9bd	0.043420542
105	0x3c6a794f	0.014311149
106	0x3d91c63b	0.071178876
107	0x3e4fa544	0.20277888
108	0xbe8912da	-0.26772195
109	0x3edd987f	0.43280408
110	0xbd86f8f7	-0.06590455
111	0x3deb2c54	0.11483064
112	0xbd141632	-0.03615398
113	0x3a87133e	0.0010305417
114	0xbe2e829e	-0.17042014
115	0xbcb9846b	-0.02264615
116	0xbed97331	-0.42470697
117	0x3d8d727f	0.06906604
118	0x3f0beb6e	0.5465611
119	0x3ddb46b5	0.10706846
120	0x3da08f44	0.07839826
121	0xbe89d93a	-0.26923543
122	0xbe1b880c	-0.15188617
123	0xbeb3c52d	-0.3511137
124	0x3b4e7e98	0.0031508561
125	0xbce9fab3	-0.028561926
126	0xbd879916	-0.06620996
127	0xbca10377	-0.019654972
128	0x3e945194	0.2896849
129	0xbc67cf43	-0.014148536
130	0xbe7e3e46	-0.24828443
131	0xbe84ddd8	-0.25950503
132	0xbf0e3e16	-0.55563486
133	0xbf19723a	-0.5993992
134	0xbcaf0486	-0.021364462
135	0x3f1bab3f	0.60808176
136	0xbe142f75	-0.14471228
137	0x3e625ba1	0.22105266
138	0x3df3d299	0.11905403
139	0x3de60bc5	0.112327136
140	0xbdbf0af8	-0.09328264
141	0xbec229ec	-0.3792261
142	0xbc8d6340	-0.01725924
143	0xbecdade0	-0.4017172
144	0xbeabc314	-0.3354727
145	0xbcc27c41	-0.02374089
146	0x3e06e8cd	0.13174744
147	0x3eec0d8e	0.4610409
148	0xbec87c8e	-0.39157528
149	0xbe5718c4	-0.21005541
150	0x3ed41334	0.414209
151	0x3ea385be	0.31937975
152	0x3ccfeb1e	0.025380667
153	0x3d0ba136	0.03408929
154	0x3d7f3c26	0.06231322
155	0x3c37a228	0.011208095
156	0x3e78d3a1	0.2429948
157	0x3e31e20a	0.17371383
158	0xbd9816fa	-0.074262574
159	0xbe7f5c6e	-0.24937603
160	0x3e302e91	0.17205264
161	0x3e82a988	0.25519967
162	0xbe7f22ab	-0.24915569
163	0x3df65d75	0.12029544
164	0x3e2c9f8b	0.16857736
165	0xbe4c26ea	-0.1993672
166	0xbdfadf1e	-0.122495875
167	0x3e2fa1e6	0.17151603
168	0xbe8c7d25	-0.27439228
169	0xbd41c5a9	-0.047307644
170	0xbf120a47	-0.5704693
171	0x3ed1de7a	0.4099005
172	0x3c195d53	0.009360629
173	0x3da57b93	0.080802105
174	0x3e87f176	0.26551408
175	0x3e5026ef	0.20327352
176	0xbed628cd	-0.41828004
177	0xbe6bde14	-0.23033935
178	0x3ed1774b	0.40911326
179	0xbd96d353	-0.07364526
180	0xbbb2ec61	-0.0054603075
181	0x3e666d66	0.2250267
182	0x3dabc4cd	0.08387146
183	0xbf60cf4e	-0.8781632
184	0xbe9794eb	-0.29605803
185	0xbef4012a	-0.47657138
186	0x3e91684a	0.2839988
187	0x3f09cfb8	0.5383258
188	0xbea1d670	-0.31608915
189	0x3d4853b3	0.048907947
190	0x3f0be38b	0.5464408
191	0xbba9f575	-0.0051867315
192	0x3e4b2ef2	0.19842127
193	0xbe81cfb8	-0.2535379
194	0x3e6561c1	0.22400571
195	0xbe3fbb81	-0.18723871
196	0x3dbb38e8	0.091417134
197	0x3dab1f93	0.08355632
198	0xbdde80d8	-0.10864419
199	0xbe01eaad	-0.12687178
200	0xbe19943f	-0.14997958
201	0x3e7f5510	0.24934793
202	0xbdc4aa4a	-0.096027926
203	0x3e515e7e	0.20446202
204	0xbd88b4e8	-0.0667513
205	0x3e17b1f1	0.14813973
206	0xbd164985	-0.036691207
207	0xbee52a03	-0.44758615
208	0x3ce7b253	0.028283274
209	0x3d0baf1e	0.03410255
210	0xbe2dac09	-0.16960157
211	0x3e2884f0	0.16456962
212	0xbf0126c4	-0.50449777
213	0x3eec7960	0.46186352
214	0xbdbddd22	-0.09270693
215	0xbeefc8d2	-0.468329
216	0xbf0b1d8d	-0.54341966
217	0x3ebec3a8	0.3725865
218	0x3e9eb8ea	0.31000453
219	0xbef2eb80	-0.47445297
220	0xbe624133	-0.22095184
221	0x3e1c7432	0.152787
222	0x3e97af21	0.296258
223	0x3c8d8c09	0.017278688
224	0xbe55556d	-0.20833369
225	0x3e21d1dc	0.15802711
226	0xbea784de	-0.32718557
227	0x3d7c61e7	0.061616804
228	0xbc57a1ad	-0.013161105
229	0xbe6df22b	-0.23236911
230	0x3f1f2ac5	0.62174636
231	0xbd0d3b6d	-0.0344805
232	0xbac0fde7	-0.0014724106
233	0xbd2b60fd	-0.041840542
234	0x3e62c0a3	0.22143798
235	0x3e2e006e	0.16992351
236	0x3cf248f6	0.029575806
237	0xbeb863f9	-0.36013773
238	0x3d01c16e	0.03167861
239	0x3e86a613	0.2629858
240	0x3d17a2e7	0.03702059
241	0x3df18282	0.117924705
242	0xbed5162a	-0.41618472
243	0xbde41e16	-0.11138551
244	0x3eba5147	0.36390135
245	0xbecdcc11	-0.40194753
246	0xbe91a35e	-0.28444952
247	0xbe29853e	-0.16554734
248	0x3ebfcd63	0.37461385
249	0xbdb31a28	-0.08745223
250	0xbf34360a	-0.7039496
251	0x3d159361	0.036517505
252	0x3e99924f	0.29994437
253	0xbed90b91	-0.42391637
254	0x3e5031b3	0.20331459
255	0x3e684733	0.2268341

conv1.bias f4 [64]
0	0x3f593187	0.848412
1	0x3f52c9ce	0.8233918
2	0x3f065a5e	0.5248164
3	0xbf8401a6	-1.0313003
4	0x3fa1c6c9	1.263879
5	0xbeb7d530	-0.35904837
6	0xbf68ee31	-0.9098845
7	0x3f12a33f	0.57280344
8	0x3fc0afef	1.5053691
9	0x3f633d08	0.88765
10	0x3fe3f85e	1.7810171
11	0xbf2f6f04	-0.6852877
12	0xbf2c5762	-0.67320836
13	0xbf9cdc9b	-1.2254823
14	0xbf4e499c	-0.8058107
15	0xbfaed9d6	-1.3660228
16	0x3f2ed2e5	0.6829055
17	0xbd4076f6	-0.04698845
18	0x3fbc6762	1.471905
19	0xbec62583	-0.38700494
20	0x3eec5a7f	0.46162793
21	0x3fbe055f	1.4845389
22	0xbf9a21d3	-1.2041572
23	0x3e9f03d1	0.310576
24	0x3efbb1c8	0.49159074
25	0x3f709e3e	0.9399146
26	0xbf91fc20	-1.1405067
27	0x3fcb8274	1.5899186
28	0xbe65bc63	-0.22435145
29	0x3f72c53e	0.9483222
30	0x3fcfa51b	1.6222261
31	0xbf29a8e1	-0.66273314
32	0xbf8be55b	-1.0929369
33	0x3e602a4f	0.2189114
34	0xbede5d24	-0.43430436
35	0xbe1970dc	-0.14984459
36	0x3f41fc18	0.7577529
37	0x3e5a6df0	0.21331
38	0xbf5d4be7	-0.8644394
39	0xbfe04ace	-1.7522829
40	0xbfc100ed	-1.5078408
41	0xbfcdc64a	-1.6076138
42	0x3fde39c6	1.7361381
43	0xbfa9871f	-1.3244361
44	0x3d182e7e	0.037153713
45	0xbf6dd8d1	-0.9290896
46	0xbddad8e0	-0.10685897
47	0x3fd1c2f6	1.6387622
48	0x3f7aebac	0.98015857
49	0xbf7807af	-0.96886724
50	0x3edf5224	0.43617356
51	0x3fadcd99	1.3578368
52	0x3fb80181	1.4375459
53	0xbeea348b	-0.45743212
54	0xbcddd800	-0.027080536
55	0xbf9a204d	-1.2041107
56	0x3f7ce348	0.98784304
57	0xbe5625d8	-0.20912874
58	0x3f668ca2	0.9005834
59	0xbf843c4e	-1.0330904
60	0x3f6399eb	0.88906735
61	0xbf824a70	-1.0178967
62	0xbfbc2070	-1.4697399
63	0xbf9725aa	-1.1808369

conv2.weight f4 [128, 64, 2, 2]
0	0xbeabdc0d	-0.33566323
1	0xbe625775	-0.22103675
2	0xbe628107	-0.22119533
3	0xbe419121	-0.18903019
4	0x3e420fd9	0.18951358
5	0x3e49323f	0.19648074
6	0xbd3722f5	-0.044711072
7	0x3ea43645	0.32072654
8	0x3e400140	0.18750477
9	0xbe6e1747	-0.23251067
10	0xbe243a55	-0.16037877
11	0xbd7fd506	-0.062459014
12	0x3d4defe9	0.050277624
13	0xbdea9812	-0.11454786
14	0x3dd4a756	0.10383479
15	0x3d1d7b44	0.038447633
16	0x3d2ec03e	0.042663805
17	0xbe2e97b6	-0.1705006
18	0x3dafde2b	0.08587297
19	0xbd642e4c	-0.055708215
20	0xbe115494	-0.1419242
21	0xbdaa843e	-0.083260044
22	0x3c7478df	0.014921396
23	0xbe84e2cc	-0.25954282
24	0xbd3cd406	-0.04610064
25	0xbe736c16	-0.237717
26	0xbdd1c755	-0.10243098
27	0xbe0207cf	-0.12698291
28	0xbdc1da85	-0.094655074
29	0x3e312d04	0.17302328
30	0xbe366c46	-0.1781474
31	0xbd4e595a	-0.05037818
32	0xbe806729	-0.25078705
33	0x3eafbad8	0.34322238
34	0xbe0e904e	-0.13922235
35	0xbeb19167	-0.34681246
36	0x3ab0a1fc	0.001347601
37	0x3d6d997b	0.0580077
38	0x3d3ca315	0.046053965
39	0xbcb59009	-0.022163408
40	0xbed7bdf7	-0.4213712
41	0x3e2e5e25	0.17028101
42	0xbe0a77d2	-0.1352227
43	0xbe1b4d6f	-0.15166257
44	0x3be2d871	0.0069227745
45	0x3d4e6927	0.05039325
46	0x3db91774	0.090376765
47	0x3e2d5224	0.16925865
48	0xbcdba2e0	-0.026811063
49	0x3e637ce2	0.22215608
50	0xbeb99f36	-0.3625428
51	0x3e2525cb	0.16127698
52	0xbe1f3455	-0.15547307
53	0xbd222bcc	-0.03959255
54	0xbd1c4efe	-0.03816127
55	0xbdc990d8	-0.0984208
56	0xbcfe95fc	-0.031077377
57	0xbe864908	-0.26227593
58	0xbc9d771f	-0.01922184
59	0xbe210097	-0.15722881
60	0xbcee4550	-0.029085785
61	0x3ddd69bb	0.10811182
62	0x3c1bdcbd	0.009513077
63	0x3c22c6da	0.009935105
64	0x3c320e2a	0.010867635
65	0x3e172e94	0.14763862
66	0xbc81ccfc	-0.015844814
67	0x3cbfd3ff	0.023416517
68	0xbee30d4b	-0.4434608
69	0xb9ebefc7	-0.0004500134
70	0xbdd2222a	-0.102604225
71	0xbea58a07	-0.3233187
72	0xbea4c4f6	-0.3218152
73	0xbe465f14	-0.19372207
74	0xbd8f6747	-0.070021205
75	0xbe5bfa64	-0.21482235
76	0xbddf9a9b	-0.109181605
77	0x3cb95317	0.022622628
78	0xbe2597b1	-0.16171147
79	0xbd710b45	-0.058848638
80	0xbe685937	-0.22690283
81	0xbec276d5	-0.37981287
82	0xbde1681f	-0.11006188
83	0xbe804a28	-0.25056577
84	0xbd72594a	-0.059167184
85	0xbcf4cede	-0.029883798
86	0x3d84cd9e	0.06484531
87	0x3d8927ca	0.06697042
88	0x3bac98b9	0.0052672294
89	0xbd67545d	-0.05647694
90	0xbd235755	-0.03987821
91	0x3d68d880	0.056847095
92	0xbecfee33	-0.4061142
93	0xbcb6a5ee	-0.022295918
94	0xbe45854f	-0.19289134
95	0xbd972998	-0.0738098
96	0xbd218941	-0.039437536
97	0x3e5a929a	0.21344987
98	0xbe513dd7	-0.20433746
99	0xbdaad234	-0.08340874
100	0xbeb6cb50	-0.3570199
101	0x3e1c1c2b	0.1524512
102	0xbe1e9004	-0.15484625
103	0xbe58cca1	-0.2117181
104	0x3d57a23b	0.05264495
105	0x3cf9953f	0.030466674
106	0x3e0f4479	0.13990964
107	0x3da17f19	0.0788557
108	0xbd10e2d9	-0.03537259
109	0xbe63f093	-0.2225974
110	0x3cf97c08	0.03045465
111	0xbc0b7d0e	-0.008513702
112	0x3c9a10f4	0.018806912
113	0xbd8cff15	-0.068845905
114	0xbc8d0e17	-0.017218633
115	0x3e0643be	0.13111779
116	0xbe27eac5	-0.16398151
117	0x3e0c6e13	0.13713865
118	0xbe35f623	-0.17769675
119	0xbe036005	-0.12829597
120	0xbe817a5d	-0.25288668
121	0x3ed4d9df	0.41572472
122	0xbe5e94f5	-0.2173651
123	0xbe96815a	-0.29395562
124	0xbd6d6bc7	-0.057964113
125	0xbe0ad10e	-0.1355631
126	0xbd11c965	-0.035592455
127	0x3c841b40	0.016126275
128	0x3d03d27d	0.03218316
129	0xbe37d833	-0.17953567
130	0x3dc025a6	0.09382181
131	0xbd54a93d	-0.05191921
132	0xbe18180d	-0.14852925
133	0x3e0d0159	0.13770045
134	0x3cce2783	0.025165325
135	0x3ccb6eb2	0.024833057
136	0x3d7cb0ae	0.061691932
137	0xbdfbdbe3	-0.122977994
138	0x3dc845d3	0.09778943
139	0x3d3f3a9c	0.046686754
140	0xbd51cf9c	-0.051223382
141	0xbd20eeda	-0.039290287
142	0xbc9c3b28	-0.019071177
143	0x3cd3606c	0.025802813
144	0x3e4f5610	0.20247674
145	0x3e2eca40	0.1706934
146	0x3e1716c6	0.14754781
147	0x3dea3ae3	0.11437013
148	0xbcaafe81	-0.02087331
149	0x3e0c0590	0.13673997
150	0x3cb5fb33	0.022214508
151	0x3e6f265a	0.23354474
152	0x3d349089	0.044083152
153	0xbe2fca22	-0.17166951
154	0x3da716f2	0.08158673
155	0x3d6a52bc	0.057207808
156	0xbd5fc497	-0.054630842
157	0xbe799553	-0.24373369
158	0x3d3a09de	0.045419566
159	0xbd350809	-0.044197116
160	0x3d5dfe20	0.05419743
161	0xbe86d379	-0.26333216
162	0xbcc84636	-0.024447542
163	0x3d6d8fe1	0.05799854
164	0xbde14037	-0.10998576
165	0xbd9e1862	-0.077194944
166	0xbecb76cb	-0.3973907
167	0xbe1eda8b	-0.15513055
168	0xbd3288ba	-0.043587424
169	0x3c34f6b1	0.011045144
170	0x3e8f37b8	0.27972198
171	0x3e294499	0.16530074
172	0xbc81d35e	-0.015847858
173	0xbbe00c2f	-0.00683739
174	0x3dc27504	0.09494975
175	0x3e33e335	0.17567141
176	0xbea9d70f	-0.3317189
177	0xbe4644e0	-0.19362211
178	0xbc2b1afe	-0.010443447
179	0x3df7618c	0.120791525
180	0xbe110d47	-0.14165221
181	0xbf06c4de	-0.52644145
182	0xbe19b4fc	-0.15010446
183	0xbe700289	-0.23438467
184	0x3d6a926f	0.057268556
185	0x3e75540c	0.23957843
186	0xbdca7601	-0.09885789
187	0x3e40851b	0.18800776
188	0xbe8aeecf	-0.27135321
189	0x3dcd84bd	0.100350834
190	0xbe13a84d	-0.1441967
191	0x3da08479	0.07837767
192	0x3cd7e122	0.026352469
193	0x3e432a1c	0.19059032
194	0xbc6f0f87	-0.014591104
195	0x3d7883b1	0.060672466
196	0xbd8a402c	-0.06750521
197	0xbebfc29c	-0.37453163
198	0xbdc38031	-0.09545935
199	0xbd9dc438	-0.077034414
200	0x3d8644e1	0.06556106
201	0xbd5bc3e0	-0.053653598
202	0x3dbc3995	0.091906704
203	0x3df458ef	0.11931025
204	0x3e3f1821	0.18661548
205	0xbe86ad2b	-0.26303992
206	0xbdab7b05	-0.083730735
207	0xbe3e6454	-0.1859296
208	0x3d23b83f	0.039970633
209	0xbcb5f581	-0.022211792
210	0x3dab1e0b	0.083553396
211	0x3e2a8dee	0.16655704
212	0xbd24b354	-0.040210083
213	0xbe944131	-0.28955987
214	0xbe22797f	-0.1586666
215	0xbde226ee	-0.110425815
216	0xbecd6ad6	-0.40120572
217	0xbe6c58d6	-0.23080763
218	0xbdf69d83	-0.12041762
219	0xbe2ea86b	-0.17056434
220	0xbe49d4fd	-0.19710155
221	0xbd29f11c	-0.041489705
222	0xbd6881d5	-0.056764442
223	0xbdc96f4f	-0.098356836
224	0x3dac12dc	0.08402035
225	0xbe92b7d7	-0.28655884
226	0xba4fc29b	-0.0007925422
227	0xbdc36906	-0.09541516
228	0x3d489088	0.04896596
229	0x3e10ca4b	0.14139669
230	0xbdf58e15	-0.119899906
231	0x3e3247b0	0.17410159
232	0x3da81eb6	0.08208983
233	0x3d795279	0.060869668
234	0x3e3e1c73	0.1856554
235	0x3e7ba4c4	0.24574572
236	0xbdc2c3e2	-0.09510018
237	0x3d63d91c	0.055626974
238	0xbf08f616	-0.535005
239	0xbe8389f9	-0.25691202
240	0xbe837282	-0.256733
241	0xbd4c2070	-0.049835622
242	0x3d3ce5f7	0.04611775
243	0xbceb5128	-0.028725222
244	0xbdd604b2	-0.10450114
245	0xbc8ac9d6	-0.016941946
246	0xbe5fd50c	-0.21858615
247	0xbdcb2c0b	-0.0992051
248	0xbdf66a65	-0.12032012
249	0xbdfa3aca	-0.122182444
250	0xbeb52c8d	-0.35385552
251	0xbdd5e6cb	-0.10444411
252	0x3c80df8a	0.015731592
253	0x3d572777	0.05252787
254	0xbd295c40	-0.041347742
255	0x3c714c36	0.014727643

conv2.bias f4 [128]
0	0x3e744ea5	0.23858126
1	0xbf02d718	-0.51109457
2	0x3ea621c3	0.32447633
3	0xbe1bf565	-0.1523033
4	0xbd5c0359	-0.05371413
5	0xbd51742a	-0.051136173
6	0xbcea9f56	-0.02864043
7	0xbd6c7449	-0.057728086
8	0xbcbaa673	-0.022784447
9	0x3e4d1684	0.2002812
10	0x3df89d23	0.121393465
11	0x3d1f9e8a	0.038969554
12	0x3f490b0d	0.7853249
13	0x3d91265e	0.07087396
14	0x3da53ba7	0.080680184
15	0xbc8a5700	-0.016887188
16	0xbe340ffb	-0.17584221
17	0xbdf7875b	-0.12086364
18	0xbd8f1904	-0.06987193
19	0xbe76aa0b	-0.24088304
20	0x3e12c02c	0.1433112
21	0xbc49faec	-0.012327891
22	0xbe6405cb	-0.22267835
23	0xbdb0940e	-0.08621989
24	0xbe1c8fc5	-0.15289219
25	0xbcb40cea	-0.021978814
26	0xbd99fbfc	-0.07518765
27	0xbb9a24bd	-0.0047040866
28	0xbd2067b8	-0.039161414
29	0xbe01686e	-0.12637493
30	0xbd0458f1	-0.032311384
31	0xbda14205	-0.0787392
32	0x3eae429a	0.34035188
33	0x3e25dcd7	0.16197525
34	0xbda4484a	-0.080216005
35	0xbe33defb	-0.17565529
36	0xbe00ebdf	-0.12589978
37	0x3ebda116	0.3703696
38	0x3d978286	0.07397942
39	0x3e69348f	0.22773956
40	0x3e1bffe6	0.15234336
41	0xbe433117	-0.19061695
42	0x3e979809	0.2960818
43	0x3f09dcb3	0.53852385
44	0x3db442fa	0.08801837
45	0x39a36de2	0.00031171652
46	0xbcc88300	-0.024476528
47	0x3e9d84b8	0.3076532
48	0xbe583898	-0.21115339
49	0xbce62547	-0.028093947
50	0x3fb2a328	1.3956041
51	0xbd933863	-0.07188489
52	0xbf0fb016	-0.5612806
53	0x3f083da0	0.5321903
54	0xbdac2b47	-0.08406692
55	0xbc1688f0	-0.009187922
56	0x3f054eb1	0.520732
57	0xbe33e157	-0.17566429
58	0xbc40d2e0	-0.0117690265
59	0xbf09bc13	-0.53802603
60	0x3e1a968a	0.15096489
61	0xbdacecb0	-0.08443582
62	0xbd317b4d	-0.04333048
63	0x3e2d589f	0.16928338
64	0xbf13d23d	-0.57742673
65	0x3cee33bf	0.029077409
66	0x3e7175dd	0.23580118
67	0xbeb43b50	-0.35201502
68	0xbf5023ec	-0.8130481
69	0xbf27cb93	-0.65545005
70	0x3da594ff	0.080850594
71	0x3dd877a2	0.10569693
72	0xbf06211b	-0.52394265
73	0xbd4f3a47	-0.050592687
74	0xbe6cfdaf	-0.23143648
75	0xbc96697e	-0.01836085
76	0x3e99e407	0.30056784
77	0x3ce24e4a	0.027625222
78	0x3e9fb518	0.3119285
79	0xbbdfc8db	-0.0068293638
80	0x3ef02c10	0.46908617
81	0x3e4c34d0	0.19942021
82	0x3ee06c38	0.43832564
83	0x3cc4bbe7	0.02401538
84	0x3e8ebb47	0.27877256
85	0xbeb63400	-0.35586548
86	0x3cebf0a4	0.02880127
87	0xbe9f7f51	-0.31151822
88	0xbf3b2d32	-0.7311584
89	0xbb6f57a7	-0.003652075
90	0xbb9ace00	-0.004724264
91	0x3ccfca08	0.02536489
92	0x3eec7e99	0.46190336
93	0xbec5e681	-0.38652423
94	0xbeab89e8	-0.33503652
95	0x3ebdab2a	0.3704465
96	0xbe96e6d9	-0.29472998
97	0xbbb1f3d6	-0.005430679
98	0x3e2088e4	0.1567722
99	0x3ec92502	0.39286047
100	0xbdc582f6	-0.096441194
101	0xbd3abc69	-0.04558984
102	0xbde75a3a	-0.11296506
103	0xbd09f64f	-0.033682164
104	0x3e5c483e	0.21511933
105	0xbd114034	-0.03546162
106	0xbdabf0a4	-0.08395508
107	0xbc85eddc	-0.016348772
108	0xbc0c2302	-0.008553268
109	0xbc616492	-0.013756888
110	0xbdb9e1d9	-0.0907628
111	0xbd9c4dcb	-0.07632025
112	0x3f20f3be	0.6287192
113	0x3d116d74	0.035504773
114	0x3d3200e9	0.0434579
115	0x3f050e59	0.5197502
116	0x3f436bd2	0.76336396
117	0x3de59d18	0.11211604
118	0xbddc710c	-0.107637495
119	0xbeaf301c	-0.34216392
120	0x3c27f6f1	0.0102517465
121	0x3d293bc0	0.041316748
122	0x3d7f757b	0.062367897
123	0xbce16112	-0.027512107
124	0x3fce5289	1.6118938
125	0xbed94f68	-0.42443395
126	0x3efbc8f1	0.49176744
127	0xbe02801c	-0.12744182

fc1.weight f4 [256, 512]
0	0xbe7c5b17	-0.24644123
1	0x3d97f9bf	0.07420682
2	0xbdc4ac1f	-0.09603142
3	0xbdb29468	-0.087197125
4	0xbe1ce2c7	-0.15320884
5	0xbda08ce5	-0.078393735
6	0x3edac43b	0.42727837
7	0xbe0bd025	-0.1365362
8	0xbe26572f	-0.16244195
9	0xbcbea189	-0.023270385
10	0xbc09c430	-0.008408591
11	0x3c04d147	0.008106536
12	0x3d513fb7	0.051086154
13	0xbd459cce	-0.048245244
14	0x3b2292fa	0.0024806843
15	0x3c2cdbfd	0.010550496
16	0x3d8bc133	0.06823959
17	0xbc03886f	-0.008028134
18	0xbe374f3c	-0.1790132
19	0x3e3601c0	0.17774105
20	0xbd1bc0c4	-0.038025633
21	0x3d8cdd73	0.068781756
22	0x3d57f195	0.052720625
23	0xbc6ec74e	-0.014573885
24	0x3ccbb880	0.02486825
25	0xbcc1a973	-0.02364037
26	0x3bfcadec	0.007711163
27	0x3d3b3f22	0.045714505
28	0xbe70e39a	-0.23524323
29	0x3d56292e	0.052285366
30	0x3ddb62f5	0.10712234
31	0xbe65abc4	-0.22428805
32	0xbe7b1d16	-0.24522814
33	0xbe36620a	-0.17810836
34	0x3e7657ae	0.24056885
35	0x3e06d849	0.13168444
36	0xbd09e39e	-0.03366434
37	0xbc170fdd	-0.009220091
38	0x3d4b1115	0.049576838
39	0xbe98aa6f	-0.2981753
40	0xbe96acea	-0.29428798
41	0xbf05914c	-0.5217483
42	0x3e3dce5d	0.18535753
43	0xbd1d2b27	-0.03837123
44	0x3d6bc268	0.057558447
45	0xbd7e168d	-0.062033225
46	0xbe264276	-0.1623629
47	0x3ce24710	0.027621776
48	0x3d98f598	0.07468718
49	0x3d575c39	0.052578185
50	0x3da07ce7	0.07836323
51	0x3e95be6c	0.29246843
52	0xbebee4ff	-0.37284085
53	0x3e2b1a3a	0.16709223
54	0x3e5ad8f6	0.21371827
55	0x3e6f0023	0.23339896
56	0xbe148ee0	-0.14507627
57	0xbda05135	-0.07827989
58	0xbe1b0897	-0.15139996
59	0xbdc38244	-0.095463306
60	0xbc4d33fb	-0.0125246
61	0xbc1926d9	-0.009347641
62	0x3d466268	0.04843369
63	0x3d5ddc04	0.0541649
64	0xbdadd7ab	-0.08488401
65	0x3c482d47	0.012217826
66	0xbda07e04	-0.078365356
67	0x3d80255c	0.06257126
68	0x3cd9b2fd	0.026574606
69	0xbdee246e	-0.11628042
70	0x3cfb32ad	0.030663813
71	0x3e0f5e38	0.14000785
72	0x3abb674d	0.0014297754
73	0xbc981ad6	-0.018567484
74	0xbcb0ea95	-0.021596232
75	0x3d08ece4	0.03342904
76	0xbd8041eb	-0.06262573
77	0xbd9b24b0	-0.07575357
78	0x3bb95464	0.005655812
79	0x3e0c876c	0.13723534
80	0xbf2bff03	-0.6718599
81	0x3e4d8f70	0.20074248
82	0x3ec62fd0	0.38708353
83	0xbe7e3d7b	-0.2482814
84	0xbec07afc	-0.3759383
85	0x3d32dd67	0.043668177
86	0x3ec2f49c	0.38077247
87	0xbe2b5650	-0.16732144
88	0xbdc828e6	-0.09773426
89	0xbe141317	-0.14460407
90	0xbe1c6ff0	-0.15277076
91	0x3e0711af	0.1319034
92	0xbc81591d	-0.015789563
93	0xbd8e3aa8	-0.069447815
94	0x3d9b3e7f	0.075802796
95	0x3c810f91	0.015754493
96	0x3d0c0369	0.03418294
97	0xbda43c65	-0.08019332
98	0xbc24b057	-0.010051808
99	0xbcc5e1dd	-0.024155552
100	0xbe05f40d	-0.13081379
101	0xbd5447dc	-0.051826343
102	0x3ca52076	0.02015708
103	0xbd4738e2	-0.048638232
104	0xbd4ef1cc	-0.050523564
105	0xbeae7b7b	-0.34078583
106	0xbc131e3f	-0.008979379
107	0xbcf42d93	-0.029806888
108	0xbeb30fc6	-0.34972972
109	0xbe067389	-0.1313001
110	0x3ee8c72f	0.45464465
111	0x3d49255e	0.0491079
112	0xbc4f1e22	-0.012641462
113	0xbd8b86d4	-0.06812826
114	0x3cca12bb	0.024667135
115	0xbccdb345	-0.025109896
116	0x3d7bb7d3	0.061454605
117	0xbdccf848	-0.100082934
118	0xbe7ecc62	-0.24882653
119	0x3e3fd00b	0.18731706
120	0x3ca4dfba	0.020126212
121	0x3d1a2713	0.03763492
122	0x3d0f9866	0.035057448
123	0xbd116b5c	-0.035502777
124	0xbcd9b20b	-0.026574155
125	0xbd4e29e8	-0.050332934
126	0x3cd1f49b	0.025629332
127	0xbcd47e4f	-0.025939135
128	0xbdcbcbf8	-0.09951013
129	0xbec8319a	-0.39100343
130	0xbcc61371	-0.024179192
131	0x3e7b97d7	0.24569641
132	0x3dd8842c	0.10572085
133	0xbdde0f9a	-0.108428195
134	0xbdf85e7b	-0.12127396
135	0xbcf9aaff	-0.030477045
136	0xbcf9b73c	-0.03048288
137	0xbd142b58	-0.03617415
138	0x3cd9a6d0	0.0265688
139	0xbc089990	-0.008337393
140	0xbe4b070d	-0.19826908
141	0xbe034e67	-0.12822877
142	0xbda181ec	-0.07886109
143	0xbe89578e	-0.2682461
144	0xbb94110c	-0.0045186337
145	0x3d724739	0.059149954
146	0x3d0cc512	0.03436763
147	0x3ca0470c	0.019565128
148	0xbd3d8ba1	-0.04627574
149	0x3eadde5d	0.33958712
150	0x3d073e52	0.033018418
151	0x3e331f5a	0.17492428
152	0xbe41246f	-0.18861555
153	0xbe40dafe	-0.18833539
154	0x3db7be13	0.08971801
155	0x3df0544d	0.11734829
156	0x3d54a849	0.0519183
157	0xbf368203	-0.7129213
158	0x3e635222	0.221993
159	0x3d5eb296	0.05436953
160	0xb9bd73b2	-0.0003613509
161	0xbda9ebcd	-0.082969286
162	0xbbbb5c60	-0.005717799
163	0xbda8cdce	-0.08242379
164	0xbb403f55	-0.0029334624
165	0x3c4ad44a	0.012379715
166	0x3b93b6c3	0.004507871
167	0xbd24295d	-0.04007851
168	0xbf0ef7e5	-0.5584701
169	0xbdfd7816	-0.1237642
170	0x3dc6742d	0.096901275
171	0x3e60c1e0	0.21948957
172	0xbe29a652	-0.16567352
173	0xbe9256ab	-0.28581747
174	0xbe2a8249	-0.16651262
175	0x3e47e195	0.19519646
176	0xbe76bf19	-0.24096335
177	0xbcb6ed24	-0.022329874
178	0x3d376f16	0.044783674
179	0x3d321e71	0.043486062
180	0xbb80f5d8	-0.003935557
181	0x3cf38836	0.029728036
182	0x3d132a20	0.035928845
183	0xbd039bd5	-0.032131035
184	0x3d5f5e6f	0.05453342
185	0xbe92e8af	-0.28693148
186	0xbe44d3ed	-0.19221468
187	0x3e1f5088	0.15558064
188	0xbea7352d	-0.32657757
189	0x3ec91457	0.3927333
190	0xbd826f38	-0.063688695
191	0xbe294af7	-0.16532503
192	0xbdf4d506	-0.119546935
193	0xbe1f1eef	-0.15539144
194	0xbd302946	-0.04300811
195	0xbe8bcc21	-0.27304175
196	0x3c243bb4	0.010024
197	0xbb2514e7	-0.002518946
198	0x3d1d52f1	0.038409177
199	0x3d04e8b8	0.0324485
200	0x3d232279	0.039827798
201	0xbe6f6d21	-0.23381473
202	0x3e5016a6	0.2032114
203	0x3df3a401	0.11896516
204	0x3de36247	0.11102729
205	0xbd5a45fe	-0.053289406
206	0xbe04f40f	-0.12983726
207	0xbe09eff9	-0.13470449
208	0xbe97d71e	-0.2965631
209	0xbe5a3ce6	-0.21312293
210	0x3d2d9658	0.042379707
211	0xbd2ce8df	-0.04221427
212	0xbe4a8ff9	-0.19781484
213	0x3e5b983b	0.2144479
214	0x3cae34ad	0.021265352
215	0x3e306a6a	0.17228094
216	0x3c30f686	0.010800963
217	0x3d106d4b	0.03526048
218	0xbe1e0088	-0.1542989
219	0x3e538baa	0.20658746
220	0x3cc4733b	0.023980727
221	0x3ad3e476	0.0016166109
222	0xbd125e52	-0.035734482
223	0x3c2e15c3	0.010625306
224	0x3e4730af	0.19452165
225	0x3e77684f	0.24160884
226	0x3d0a48b1	0.03376073
227	0x3e868366	0.26272124
228	0xbe3b19b1	-0.18271519
229	0xbd476e3f	-0.048689123
230	0xbd137cd7	-0.03600773
231	0xbdce10e3	-0.10061815
232	0xbe8ba9eb	-0.27278075
233	0x3deb847e	0.1149988
234	0x3ea6e5e1	0.3259726
235	0xbe066ab2	-0.13126639
236	0xbc6d1891	-0.014471189
237	0xbd9494fa	-0.072549775
238	0xbd9260fd	-0.07147405
239	0xbe4284a6	-0.18995914
240	0xbe8d1877	-0.27557728
241	0xbebeb6c9	-0.3724883
242	0x3da7fc88	0.082024634
243	0x3dcf60d0	0.101258874
244	0xbaf2fed1	-0.0018539076
245	0x3c11a347	0.008889026
246	0xbc588bea	-0.013216952
247	0xbab6479b	-0.0013906838
248	0xbccbe051	-0.024887236
249	0x3bfef091	0.0077801426
250	0xbcbbeaa2	-0.02293903
251	0xbd27f813	-0.041008066
252	0xbdd22c30	-0.10262334
253	0x3ce43ff8	0.027862534
254	0x3d93ed15	0.07222954
255	0xbe156de2	-0.14592698

fc1.bias f4 [256]
0	0x3d79751b	0.060902696
1	0xbd084e4e	-0.033277802
2	0xbd69b007	-0.05705264
3	0x3e24c638	0.1609124
4	0x3bb0733b	0.0053848303
5	0xbdd239dc	-0.10264942
6	0x3ec0ead9	0.37679175
7	0xbd302cb0	-0.043011367
8	0xbd0947bc	-0.033515677
9	0x3ade63f9	0.001696705
10	0x3c125666	0.008931732
11	0xbcb09fe8	-0.021560624
12	0xbdd353b4	-0.103186995
13	0xbe0b1a59	-0.1358427
14	0x3db45603	0.08805468
15	0xbd688cd9	-0.056774948
16	0xbd2d1bc5	-0.04226281
17	0xbe4494ca	-0.19197384
18	0x3b9e3830	0.0048284754
19	0xbd21d552	-0.03951008
20	0x3e0cc565	0.13747175
21	0xbda9fedf	-0.08300566
22	0x3dd750fa	0.10513492
23	0xbd1fef91	-0.039046828
24	0xbd533ade	-0.051569812
25	0x3e05d047	0.13067733
26	0xbd55b5ea	-0.05217544
27	0x3d57e749	0.052710805
28	0xbc9741f4	-0.018464066
29	0x3bbdf479	0.0057969657
30	0x3f1d65e2	0.61483586
31	0xbbd1d025	-0.0064029866
32	0x3d167890	0.03673607
33	0xbcba7f0e	-0.022765663
34	0x3c808ff1	0.015693637
35	0x3ca8bced	0.0205979
36	0x3e3af2e7	0.18256722
37	0xbc7523be	-0.014962135
38	0xbd761c37	-0.0600855
39	0x3d91a245	0.071110286
40	0x3cc40062	0.023925964
41	0xbc1558b0	-0.009115383
42	0x3dfdbae0	0.12389159
43	0x3e0357ae	0.12826416
44	0xbd2f62cb	-0.042818826
45	0x3ebcc6d9	0.3687046
46	0x3f0f456f	0.5596532
47	0x3e39d672	0.1814821
48	0xbcf6df61	-0.030135812
49	0xbb962f2b	-0.0045832596
50	0x3ece4598	0.4028747
51	0x3e01a420	0.12660265
52	0x3ecaa22b	0.3957685
53	0x3e15a59b	0.14613955
54	0xbd957f98	-0.07299727
55	0xbd659452	-0.056049652
56	0xbbf2241b	-0.007389558
57	0x3c05ef73	0.008174765
58	0x3e91dd3f	0.2848911
59	0x3d14bdc1	0.036313776
60	0xbcfa9c62	-0.030592147
61	0x3d3315f2	0.0437221
62	0xbd53f942	-0.051751383
63	0x3daaa235	0.0833172
64	0xbc23679a	-0.009973431
65	0xbb352fd0	-0.0027646907
66	0xbe9fb0ef	-0.31189677
67	0x3d083ebd	0.033262957
68	0x3ec4b06b	0.38415846
69	0x3b8ae8bb	0.0042391694
70	0x3db9d935	0.09074632
71	0xbc2fcc8d	-0.010729921
72	0xbe06d889	-0.13168539
73	0xbcff000d	-0.031127954
74	0xbc8e48bd	-0.017368669
75	0x3d79bc1a	0.060970403
76	0x3e1fc725	0.15603311
77	0x3ee9b1f9	0.45643595
78	0x3c20f6e7	0.009824491
79	0x3f0d2ab4	0.55143285
80	0x3e87e695	0.26543108
81	0x3e1aceb5	0.15117915
82	0xbc96ec70	-0.018423289
83	0x3e6f3f0a	0.23363891
84	0xbca4e858	-0.020130321
85	0xbd24c2f6	-0.04022499
86	0x3e931e98	0.2873428
87	0x3d6207de	0.055183284
88	0x3b8e2d9e	0.004338934
89	0xbdd2ec39	-0.10298962
90	0x3e1ffba7	0.15623342
91	0x3e4f79d4	0.20261317
92	0xbd508fe9	-0.050918493
93	0x3e50b780	0.203825
94	0x3ce81b0d	0.028333211
95	0x3c745ff3	0.014915454
96	0x3da77f74	0.08178607
97	0x3de56ff2	0.112029925
98	0x3d863d49	0.06554658
99	0xbd8d24e3	-0.06891801
100	0x3cdf8204	0.027283676
101	0x3efa3179	0.4886587
102	0xbe81d168	-0.25355077
103	0xbc367a05	-0.01113749
104	0x3c048360	0.008087963
105	0x3dbb59cb	0.09147986
106	0x3df8a50c	0.12140855
107	0x3d869ad2	0.065724984
108	0xbd205f36	-0.0391533
109	0x3ddb57a0	0.107100725
110	0xbb60f30e	-0.003432456
111	0x3c460b74	0.012087692
112	0xbda4b1d6	-0.08041732
113	0x3d5c3878	0.05376479
114	0x3c90baf1	0.017667266
115	0xbd1446be	-0.036200278
116	0x3a34ddfb	0.0006899533
117	0xbd3a5338	-0.04548952
118	0x3dd9104f	0.10598814
119	0x3ea3175d	0.31853762
120	0xbdc3ad7e	-0.095545754
121	0xbd2c404e	-0.042053513
122	0x3b7be50e	0.0038436088
123	0x3e428bc0	0.18998623
124	0xbe059124	-0.13043648
125	0x3f1eedb5	0.6208146
126	0x3db1352b	0.08652719
127	0xbd7f1904	-0.062279716
128	0xbd13ef5d	-0.036116946
129	0x3aa34e73	0.0012459293
130	0xbd7e7257	-0.06212076
131	0xbd8cbf48	-0.068724215
132	0xbd7eed05	-0.06223776
133	0xbd16e412	-0.0368386
134	0x3dfab4e0	0.122415304
135	0xbe3a3858	-0.18185556
136	0xbe997a53	-0.29976138
137	0xbd51f540	-0.05125928
138	0x3ccc92ff	0.024972437
139	0xbb31bd1d	-0.0027120777
140	0xbdae76b1	-0.08518732
141	0x3ee079e6	0.43843
142	0xbccb03ed	-0.024782145
143	0xbd3bf330	-0.04588622
144	0x3e54f8ce	0.20798036
145	0x3d46783c	0.04845451
146	0x3d94845e	0.072518095
147	0x3e17b1c8	0.14813912
148	0x3e88877a	0.2666586
149	0x3e070e5b	0.1318907
150	0xbdaac588	-0.08338457
151	0x3e9bb67b	0.3041266
152	0xbafb2cec	-0.0019163168
153	0xbde94526	-0.11390142
154	0xbdb4fa58	-0.08836812
155	0xbd87fbff	-0.06639861
156	0x3ea23072	0.31677586
157	0xbdb58d16	-0.08864801
158	0x3d8b7a56	0.06810443
159	0xbdccac3d	-0.09993789
160	0x3ca86d80	0.020560026
161	0xbc7013ff	-0.014653205
162	0xbc66bab0	-0.014082596
163	0x3d8cb5c1	0.06870604
164	0xbe105186	-0.14093599
165	0xbde3edc0	-0.111293316
166	0x3f432033	0.7622101
167	0x3dff1536	0.124552175
168	0x3ee4e962	0.44709307
169	0xbe71cac1	-0.236125
170	0x3ef5a262	0.4797545
171	0xbdb37bb1	-0.08763827
172	0x3e507141	0.20355703
173	0x3ea9889b	0.33112034
174	0x3e961ad2	0.29317337
175	0xbc2854d0	-0.010274127
176	0xbd953f45	-0.07287458
177	0xbd7bb5e3	-0.061452758
178	0xbd9f6257	-0.07782429
179	0xbd793b91	-0.060847823
180	0x3d9d570f	0.07682621
181	0xbca4d6ea	-0.02012201
182	0x3e8abee3	0.2709876
183	0x3e1d32aa	0.15351358
184	0xbd7ca363	-0.061679255
185	0xbd47b8b4	-0.04876013
186	0xbd11eaae	-0.0356242
187	0xbd994fa3	-0.074858926
188	0x3d3fd15a	0.046830513
189	0xbe08088d	-0.13284512
190	0x3d53f0a0	0.05174315
191	0x3b04cb10	0.0020262636
192	0xbd82e323	-0.06390979
193	0xbc49f4ac	-0.012326401
194	0xbd8f3da9	-0.069941826
195	0xbd8f0a31	-0.06984366
196	0xbc95cea2	-0.018287007
197	0xbcb6c6d5	-0.022311607
198	0xbdd669bd	-0.10469387
199	0xbd7a44c2	-0.06110073
200	0xbd5434cb	-0.05180816
201	0x3d4a41a1	0.049378995
202	0xbd388026	-0.045044087
203	0xbd2f3432	-0.042774387
204	0x3e90a7b7	0.28252956
205	0xba9aaa42	-0.0011800008
206	0x3ed899dc	0.42304885
207	0xbe038ab5	-0.12845881
208	0x3e1e0051	0.15429808
209	0x3d1a31ad	0.03764503
210	0x3c65358b	0.013989816
211	0xbd972a31	-0.07381094
212	0xbe174514	-0.14772445
213	0x3d5a3e61	0.053282145
214	0xbd5cab33	-0.053874206
215	0xbc7160ea	-0.014732579
216	0xbc7ced46	-0.01543743
217	0xbd9fbd81	-0.07799817
218	0x3e147e7c	0.14501375
219	0x3e138e0d	0.14409657
220	0xbd577da5	-0.05261006
221	0xbccca38a	-0.024980325
222	0xbe61427b	-0.21998017
223	0xbd3ed750	-0.046592057
224	0xbb4004c5	-0.0029299718
225	0x3e1375a5	0.14400347
226	0x3e041dc8	0.12901986
227	0x3ec8d1e6	0.3922264
228	0x3f1c6d28	0.6110406
229	0x3e18f22e	0.14936134
230	0x3db7b332	0.08969726
231	0x3e954ee3	0.29161748
232	0xbdcb1d3d	-0.09917686
233	0x3dd54c3a	0.1041493
234	0xbd2c7dd3	-0.042112183
235	0x3b7c5d0e	0.0038507613
236	0xbe10e835	-0.1415108
237	0xbdb5d06b	-0.08877643
238	0xbd7f378e	-0.06230884
239	0xbd382320	-0.044955373
240	0xbd5d3a63	-0.05401076
241	0xbd3c4caa	-0.04597155
242	0x3dae1eb5	0.08501951
243	0x3e20f9eb	0.15720336
244	0xbda8f239	-0.08249325
245	0xbcbe991d	-0.02326637
246	0xbd44bf69	-0.048034105
247	0xbd4d4517	-0.050114717
248	0xbd299058	-0.041397423
249	0x3eb03e8c	0.3442272
250	0x3d529e68	0.0514206
251	0x3df9a338	0.12189335
252	0x3bca2b8c	0.006169742
253	0xbd05a976	-0.032632314
254	0xbdf5981a	-0.11991902
255	0xbd2a7046	-0.04161098

fc2.weight f4 [4, 256]
0	0xbdcc7eac	-0.09985098
1	0x3c22792d	0.009916586
2	0x3dd9c724	0.10633686
3	0xbe46fa25	-0.1943136
4	0xbca51be8	-0.020154908
5	0x3d1d58df	0.038414832
6	0x3d8ecb57	0.06972378
7	0xbc8f6e7a	-0.017508734
8	0x3d05471c	0.03253852
9	0xbdaa1ade	-0.08305906
10	0xbd58524c	-0.05281286
11	0xbd3e02a5	-0.04638924
12	0x3dce59e8	0.10075742
13	0xbe170685	-0.14748581
14	0xbe1d2d9a	-0.15349427
15	0xb99ce117	-0.00029922344
16	0xbccd4777	-0.025058491
17	0x3d839ce8	0.06426412
18	0x3e42bbf0	0.19017005
19	0xbd29d34d	-0.041461278
20	0xbe30c612	-0.17263058
21	0xbd9910fa	-0.07473941
22	0x3dc7659c	0.09736177
23	0xbd5defd3	-0.054183792
24	0xbcc0a7ba	-0.023517478
25	0x3e3b8116	0.18310961
26	0xbbbbaca2	-0.0057273665
27	0xbe53ad0e	-0.20671484
28	0x3d538f65	0.051650424
29	0xbc7d48e0	-0.015459269
30	0x3dba080d	0.09083567
31	0x3d33afb1	0.043868724
32	0xbeaa6604	-0.33280957
33	0x3dd794e2	0.10526444
34	0x3bc82fd0	0.0061092153
35	0x3d4dfa8c	0.05028777
36	0xbe602c94	-0.21892005
37	0x3d22bd0b	0.039731067
38	0xbe54a282	-0.20765117
39	0x3e4b7a06	0.19870767
40	0xbd50947a	-0.05092285
41	0x3cc4bd4d	0.024016047
42	0xbe20cd31	-0.15703274
43	0xbedcbea7	-0.43114206
44	0x3d624cad	0.055248905
45	0x3d94417f	0.07239055
46	0x3d4bff30	0.049803913
47	0xbdaa8084	-0.08325294
48	0x3c9ff3d8	0.019525453
49	0xbd4c35f2	-0.049856134
50	0x3d22a5e5	0.03970899
51	0xbdcbb3f3	-0.09946432
52	0x3df16887	0.11787515
53	0x3dbbb01f	0.09164452
54	0xbf0739e2	-0.528227
55	0x3d88e98e	0.06685172
56	0x3c28a181	0.010292412
57	0x3b6b12b3	0.00358693
58	0x3dc7f5c7	0.09763675
59	0xbd920bea	-0.07131179
60	0x3cc6103e	0.024177667
61	0xbd605f7d	-0.054778565
62	0xbcfd5240	-0.030923009
63	0x3ddbc831	0.10731543
64	0x3d8108c3	0.06300499
65	0x3c243abe	0.010023771
66	0xbeaa6776	-0.3328206
67	0xbd5748bd	-0.052559603
68	0x3e12c7b1	0.14333989
69	0x3d3e82ad	0.04651134
70	0x3de1ae9d	0.11019633
71	0xbc8501c0	-0.016236186
72	0xbdb4c3cd	-0.088264085
73	0xbca3783c	-0.019954793
74	0x3cad37ab	0.021144709
75	0xbe009e3b	-0.1256036
76	0x3d968cdb	0.07351085
77	0x3de67010	0.11251843
78	0xbb83d23e	-0.0040228656
79	0x3d81cf9e	0.06338428
80	0xbdaaaff6	-0.08334343
81	0x3da8bc30	0.08239019
82	0x3cb33e78	0.021880373
83	0x3e14e136	0.14539036
84	0x3c4508a8	0.01202599
85	0xb8c2a694	-9.2816685e-05
86	0x3da90b73	0.08254137
87	0xbd79fd4b	-0.061032575
88	0x3e4e318f	0.20136093
89	0xbd9f3584	-0.07773879
90	0x3e079cfc	0.13243479
91	0x3ddeeb3c	0.10884711
92	0xbc5203b0	-0.012818262
93	0xbdc1329c	-0.09433481
94	0xbbcda287	-0.0062754783
95	0xbf0e3c25	-0.55560523
96	0x3da85c2c	0.082207054
97	0x3dc8531c	0.09781477
98	0x3e20c426	0.15699825
99	0x3ca07ea0	0.01959163
100	0xbe98ce57	-0.29844925
101	0x3e0165a3	0.12636428
102	0xbdd20dde	-0.10256551
103	0xbd61229f	-0.054964658
104	0x3c8aa4d9	0.016924309
105	0xbe9345df	-0.28764245
106	0xbde2fe86	-0.11083703
107	0x3d88a393	0.06671824
108	0xbba5db6b	-0.005061557
109	0xbd56cc94	-0.052441195
110	0x3e0e7a88	0.1391393
111	0xbbcbb6d7	-0.0062168646
112	0x3b268537	0.0025408992
113	0xbe0383b0	-0.12843204
114	0xbe8a4803	-0.27008066
115	0x3d09e384	0.03366424
116	0x3cac42ef	0.02102801
117	0xbce54486	-0.027986776
118	0xbda84902	-0.0821705
119	0x3d84e327	0.06488638
120	0xbe45fd3a	-0.1933488
121	0xbd20ee0f	-0.03928953
122	0x3d465d7f	0.04842901
123	0xbdf65058	-0.12027043
124	0xbd3237c9	-0.043510232
125	0x3db5176a	0.088423565
126	0xbd9fb397	-0.07797926
127	0xbdfeb3f6	-0.124366686
128	0x3c70ee10	0.014705196
129	0x3ba727cb	0.0051011792
130	0x3b1b69a1	0.0023714083
131	0xbda1fcb2	-0.07909526
132	0xbc816693	-0.015795982
133	0xba8a7986	-0.0010564781
134	0xbe29ee49	-0.16594805
135	0xbdda1e0b	-0.106502615
136	0xbe84a2f1	-0.25905564
137	0xbc84bb82	-0.016202692
138	0x3dd07d8d	0.10180197
139	0xbbe10b70	-0.0068678185
140	0x3ba2fac6	0.004973742
141	0x3d896195	0.067080654
142	0xbc543da9	-0.012954154
143	0x3d09d258	0.033647865
144	0xbe45e162	-0.19324258
145	0x3dd7a451	0.10529388
146	0x3dc91cce	0.09819947
147	0xbdc60087	-0.09668069
148	0x3d326a90	0.043558657
149	0xbe01b799	-0.12667693
150	0x3d171bca	0.036891736
151	0x3d606aec	0.05478947
152	0x3de21ccf	0.11040651
153	0x3e07db84	0.13267332
154	0xbdd2f15f	-0.10299944
155	0xbd42aa3e	-0.047525637
156	0xbead11ba	-0.33802587
157	0xbc66f960	-0.014097542
158	0x3db5fd81	0.08886243
159	0x3bb97596	0.0056597693
160	0x3ddee9e6	0.10884456
161	0x3c83a89d	0.016071612
162	0x3d481f26	0.04885783
163	0xbd6eb4af	-0.058277782
164	0xbe6dc231	-0.2321861
165	0xbc91cfb1	-0.01779923
166	0x3e6ccf45	0.23125942
167	0x3ca6e112	0.020370994
168	0x3cd9072c	0.026492678
169	0xbdeebeba	-0.11657472
170	0x3e1901a8	0.14942038
171	0x3d29dc86	0.041470073
172	0x3ddce5ee	0.10786043
173	0xbd583cde	-0.052792422
174	0x3dcf056b	0.10108455
175	0x3d0df26c	0.03465502
176	0x3b8527ee	0.004063598
177	0x3d1bcba4	0.038036004
178	0xbd9b9d0d	-0.075983144
179	0xbb34f8db	-0.002761415
180	0x3e640648	0.22268021
181	0xbb4a42a2	-0.003086247
182	0x3c23609a	0.009971762
183	0xbdfc6b8f	-0.12325203
184	0x3b65639e	0.0035002003
185	0xbcab0954	-0.020878471
186	0xbd1bae23	-0.038007867
187	0x3dfe5c9a	0.12420006
188	0xbd45c4e7	-0.048283484
189	0x3d7a47e6	0.061103724
190	0xbd93adab	-0.07210859
191	0xbd3d5427	-0.046222832
192	0x3d4d2f47	0.050093915
193	0x3bccdfa7	0.0062522474
194	0xbce67f9e	-0.028137024
195	0xbd06b8d2	-0.032891102
196	0x3d589bc4	0.052882925
197	0x3d1cdd25	0.038296837
198	0x3ca69dd2	0.020338926
199	0x3c4f3cfd	0.012648818
200	0xbd2371b6	-0.039903365
201	0xbda9f41d	-0.08298514
202	0xbe040e99	-0.12896194
203	0x3c1cd4df	0.009572237
204	0x3e16c3ae	0.14723083
205	0x3d071f4b	0.032988828
206	0x3e2cc6f1	0.16872765
207	0xbd8640fc	-0.065553635
208	0x3dc5b37e	0.09653376
209	0xbe8e9c57	-0.27853653
210	0x3dfceb79	0.123496
211	0xbcd16c7c	-0.025564425
212	0xbdd7acc3	-0.105309986
213	0x3dcbd009	0.09951789
214	0x3d18753f	0.03722119
215	0xbbf25351	-0.007395186
216	0x3cac60e7	0.0210423
217	0xbe799c4b	-0.24376027
218	0xbe503d1c	-0.20335811
219	0xbe596da8	-0.21233237
220	0x3d5c0cb6	0.05372306
221	0x3d686d2f	0.05674475
222	0xbe04ff58	-0.12988031
223	0x3cbc7b71	0.02300808
224	0xbe49b5d7	-0.19698273
225	0x3dc70c77	0.09719174
226	0x3ddab3ab	0.106788
227	0x3dcdbbcb	0.10045584
228	0x3e0b900a	0.13629165
229	0x3d80efd7	0.06295746
230	0xbe33aa31	-0.17545392
231	0x3cdf727d	0.027276272
232	0x3bd1ddec	0.006404629
233	0xbe7b0b1a	-0.24515954
234	0xbc9f3f57	-0.019439382
235	0x3d590151	0.05297977
236	0x3dc14059	0.094361015
237	0xbde0d20c	-0.10977563
238	0xbcb674d6	-0.022272509
239	0xbd1a63b7	-0.03769275
240	0xbc326cc5	-0.0108901905
241	0x3dc1590e	0.09440814
242	0xbe6839ca	-0.22678295
243	0x3e05d103	0.13068013
244	0x3db230ad	0.087006904
245	0xbc3d486f	-0.011552914
246	0x3c1a960f	0.009435191
247	0x3c95c361	0.01828164
248	0xba5f3099	-0.00085140165
249	0x3d888dd3	0.06667676
250	0xbdb37fa1	-0.08764578
251	0x3dd9f9dc	0.1064336
252	0xbc315d83	-0.010825518
253	0x3ba1876b	0.004929473
254	0xbcf01c31	-0.029310318
255	0x3c662906	0.014047867

fc2.bias f4 [4]
0	0xbdca305c	-0.09872505
1	0xbd11075f	-0.03540742
2	0xbc7b4221	-0.015335591
3	0xbd869475	-0.06571285
