Learning_models/2048DQN_1000.pth (torch, 533116 bytes, 8 tensors)

conv1.weight f4 [128, 1, 2, 2]
0	0xbf2c6f5c	-0.6735742
1	0x4043589e	3.0522838
2	0xbd8cc5eb	-0.06873687
3	0x3ffaa32f	1.958105
4	0xbcc9c7a0	-0.024631321
5	0xbcfb0e9d	-0.030646617
6	0x3f2cc228	0.6748376
7	0xbdfd46ba	-0.12367006
8	0x3e1f8656	0.15578589
9	0xbc649bff	-0.013953208
10	0x3d673971	0.056451265
11	0xbc875576	-0.016520243
12	0x3f28edb5	0.6598771
13	0x3f2514d3	0.644849
14	0x3ca70a9d	0.020390803
15	0x3e821d3f	0.25412938
16	0x3e9e4c3a	0.3091753
17	0xbca274c9	-0.019831078
18	0x3f6a5933	0.9154236
19	0x3e9437bc	0.28948772
20	0x3f535319	0.8254867
21	0x3f378c8d	0.7169884
22	0x3eed80cd	0.4638733
23	0xbefe95b0	-0.49723577
24	0xc0829e4b	-4.081823
25	0xc004ca7d	-2.074859
26	0x3f6f4ea0	0.9347935
27	0x3ebb01d7	0.3652484
28	0x3ddfbbd4	0.10924497
29	0xbbf02169	-0.0073282016
30	0xbbfe4de9	-0.0077607525
31	0xbc006b1a	-0.007838035
32	0x3c3a5cbd	0.01137465
33	0x3eef4d87	0.46738836
34	0x3e3fcfcb	0.1873161
35	0x3e3fca53	0.18729524
36	0x3d90b8c7	0.070664935
37	0xbcce7dde	-0.025206503
38	0x3e937bf9	0.2880552
39	0xbd204a0a	-0.03913311
40	0xbf93e1c2	-1.1553271
41	0x3fc4ae3a	1.536567
42	0xbe6b52e2	-0.22980836
43	0x40124b72	2.2858548
44	0x3ee80fe2	0.45324618
45	0x3ea12170	0.31470823
46	0xc09a1bfb	-4.8159156
47	0x3fdf0a0b	1.742494
48	0x3e06aac3	0.13151078
49	0xbcf9f6ea	-0.030513246
50	0x3f13ec17	0.5778212
51	0xbd5e15e0	-0.05422008
52	0xbd2c9125	-0.042130608
53	0x404874cc	3.1321287
54	0xc00d5f55	-2.2089436
55	0x3e43a67a	0.19106475
56	0x3fe7d45f	1.8111686
57	0xc0130363	-2.2970817
58	0xbf23cec4	-0.63987374
59	0xc000e85c	-2.014182
60	0x3c8ff040	0.017570615
61	0x3e7956a4	0.24349457
62	0xbb20948b	-0.00245026
63	0x3f1226fe	0.5709075
64	0x404383fc	3.0549307
65	0xc0575dce	-3.3651004
66	0x3ca9ccee	0.0207276
67	0x3c52bcfb	0.012862439
68	0x400d82e3	2.2111137
69	0x3dd842a9	0.105595894
70	0xc057aea1	-3.3700335
71	0x3e92353d	0.28556243
72	0xbf32f00c	-0.6989753
73	0x3ddbbfba	0.10729928
74	0x3f89fb23	1.0779766
75	0x3ba5017f	0.0050355787
76	0x3edd4d31	0.43222955
77	0xbc452831	-0.012033508
78	0x3a0e76f5	0.0005434596
79	0xbcf0a63d	-0.029376144
80	0x3fb5a74d	1.4191681
81	0x3fa1b81e	1.2634313
82	0xbdb34cd4	-0.08754888
83	0x3d22e762	0.039771445
84	0xbf38c470	-0.7217474
85	0x4040523f	3.00502
86	0x3c512ca1	0.012766988
87	0x3f013856	0.50476587
88	0x3ea92256	0.3303401
89	0x3de4d7c5	0.11173967
90	0xc1aecc2b	-21.849691
91	0x3f209587	0.6272816
92	0x3e0aa873	0.13540821
93	0xbce809ae	-0.028324928
94	0x3ec56b10	0.38558245
95	0xbd47fadf	-0.048823234
96	0xbd0c75fc	-0.034292206
97	0x3d4c60e2	0.049897082
98	0x3f5d9023	0.8654806
99	0xbf4bdedc	-0.7963693
100	0x3e38ebbc	0.18058676
101	0xc0fe931a	-7.9554567
102	0x3ef71a3a	0.48262197
103	0x3f0ec26d	0.5576542
104	0x3f794c73	0.9738228
105	0x3f1f8bae	0.6232251
106	0x3dbfce4a	0.093655184
107	0x3e09919e	0.13434455
108	0x3eeba1d3	0.460219
109	0x3d81b3d5	0.06333128
110	0x3dc54a0d	0.09633265
111	0xbca8f7d9	-0.020625995
112	0x3fd91caf	1.6961879
113	0x3e10b4b7	0.14131437
114	0x3d366498	0.044529527
115	0xc011e73a	-2.279738
116	0xbbcd0ed6	-0.006257872
117	0xbd70d378	-0.058795422
118	0x3e1601af	0.1464908
119	0x3ed48926	0.41510886
120	0xc10d5112	-8.832293
121	0x3f40cfaa	0.7531687
122	0x3eb33f9e	0.35009474
123	0xbdecd7d2	-0.11564602
124	0x3dfd72ec	0.12375435
125	0x3d09545f	0.03352773
126	0x3d4a9ee6	0.049467944
127	0x3d59ced6	0.05317577
128	0x3f0c839a	0.5488831
129	0x3f2c4d05	0.6730502
130	0x3f0424f2	0.51618874
131	0xbf37cf9f	-0.7180118
132	0xbd4292cb	-0.047503274
133	0xbd2ddf8a	-0.04244951
134	0x3ea8c9b0	0.32966375
135	0x3efd567d	0.49480048
136	0xc03e5e54	-2.9745073
137	0x3fb2382b	1.3923391
138	0x3fbf5d2f	1.4950312
139	0xbf060973	-0.5235817
140	0x3f854619	1.0412017
141	0x3fb0ef3c	1.3823009
142	0xbf3f6814	-0.74768186
143	0xbd43280c	-0.047645614
144	0x3ec8b1e0	0.39198208
145	0x3c1d6400	0.009606361
146	0x3d89a687	0.06721216
147	0xc1440806	-12.251959
148	0xbe295ba3	-0.16538863
149	0x3f9a57e1	1.2058069
150	0xbfbdc5e8	-1.4826021
151	0x3f7a5cab	0.9779765
152	0xbce60318	-0.028077647
153	0x3ec0a088	0.37622476
154	0x3eabf94d	0.3358864
155	0xbdcd6799	-0.10029525
156	0x3ee7fd1b	0.45310292
157	0x3d5abd2a	0.053403057
158	0x3f48aff6	0.78393495
159	0x3da5ea84	0.08101371
160	0xbeb6dc9e	-0.35715193
161	0xbf4743c9	-0.77837807
162	0x3f0e6d13	0.55635184
163	0x3d205b65	0.03914966
164	0x3fd2cd61	1.6468927
165	0x3fcf99ad	1.6218773
166	0xc0e2b120	-7.0841217
167	0xc0067685	-2.1009839
168	0x4003b601	2.0579836
169	0xbd2a2521	-0.041539315
170	0xc058d098	-3.3877316
171	0x3ebfc04b	0.37451395
172	0x3e4660e6	0.19372901
173	0xbdb27705	-0.087141074
174	0xc102949f	-8.161284
175	0x3fd699ec	1.6765723
176	0xbf5968bb	-0.8492543
177	0x3e851996	0.25996083
178	0x3ecf0e81	0.40440753
179	0x3fd24d97	1.6429929
180	0xbec0e374	-0.37673533
181	0x3f97361c	1.1813388
182	0x3ef3bc02	0.47604376
183	0x3f1cd557	0.6126303
184	0x3dd8e240	0.10590029
185	0x3f0a30fd	0.53981
186	0x3e01b327	0.12665997
187	0xbe0f706c	-0.1400773
188	0x3f33df43	0.70262545
189	0x3eb5a1dc	0.3547505
190	0xbdfc2f71	-0.12313736
191	0xbeddb260	-0.43300152
192	0xbd88de68	-0.066830456
193	0xbdea2ab7	-0.114339285
194	0x3efaadf1	0.48960832
195	0x3ebd2352	0.3694101
196	0x40009352	2.0089917
197	0x3dceaa0a	0.10091026
198	0xc02a5f77	-2.6620767
199	0x3f979134	1.1841187
200	0xbf358a8c	-0.7091453
201	0x40237092	2.5537457
202	0x3f93af93	1.1537956
203	0xc05435bb	-3.3157794
204	0x3fb380ff	1.4023741
205	0x3f98f375	1.1949297
206	0xbdaa1abe	-0.08305882
207	0x3da058f1	0.07829464
208	0xbf881047	-1.0629967
209	0xc0024926	-2.0357146
210	0x3fca8c9f	1.5824164
211	0xbf8dd27d	-1.1079861
212	0xc08c5a0a	-4.385991
213	0xbcc4aab4	-0.024007179
214	0x4083fb05	4.124392
215	0xbdfc3e2d	-0.123165466
216	0x3bc105c1	0.0058905785
217	0xbdcdf4b7	-0.10056441
218	0xbdb0bb3d	-0.08629463
219	0x3f03438d	0.5127495
220	0x3e032c2b	0.12809817
221	0xbd62562f	-0.055257972
222	0x3ed93cd8	0.42429233
223	0xbd53b0c2	-0.05168224
224	0xbe5decd8	-0.2167238
225	0xbe80c64a	-0.25151283
226	0xbec42276	-0.38307542
227	0xbd1fa640	-0.038976908
228	0x3f84c6ab	1.0373129
229	0x3f56cd83	0.83907336
230	0x3e0fac1a	0.14030495
231	0x3e33666c	0.1751954
232	0xbf5e1dff	-0.8676452
233	0x3f9b3982	1.2126925
234	0x3e231e8f	0.15929626
235	0xbeb94643	-0.36186418
236	0x3e924707	0.28569815
237	0x3f384ccf	0.719922
238	0x3f1038f8	0.5633693
239	0x3d57ddfb	0.05270193
240	0xbc9ffc91	-0.019529613
241	0x3cd7dfad	0.026351774
242	0xbc59fc95	-0.013304849
243	0xbd00df30	-0.03146285
244	0xbec83080	-0.39099503
245	0xbef14ccc	-0.47128904
246	0xbe7819ac	-0.24228543
247	0xbea57950	-0.32319117
248	0x3f545df8	0.82955885
249	0x3f0aaba4	0.5416815
250	0x3da60ff9	0.08108515
251	0x3dc90ac0	0.098165035
252	0xc03add5b	-2.9197605
253	0x406f889a	3.7427125
254	0x3e2c59f9	0.16831197
255	0x3edebd4d	0.435038

conv1.bias f4 [128]
0	0xbf98bbeb	-1.1932348
1	0x402b1034	2.672864
2	0x406494b5	3.5715764
3	0xc04d0825	-3.203622
4	0xbfee5dbd	-1.8622357
5	0xbf858032	-1.0429747
6	0xbfd435cc	-1.6578918
7	0x405d9630	3.4622917
8	0xbf5875cb	-0.8455474
9	0x4044953b	3.0716083
10	0xc00ff355	-2.2492268
11	0x40eef682	7.4675913
12	0x405b8ea6	3.4305816
13	0x40af4656	5.477336
14	0x403f2379	2.98654
15	0xbf9ef2b1	-1.2417814
16	0x3ece26fb	0.40264115
17	0x3fca205c	1.5791125
18	0x402d715d	2.7100441
19	0x404d80c5	3.2109845
20	0xc0127da3	-2.2889183
21	0xbf018876	-0.5059885
22	0x4064edc1	3.5770113
23	0x405eab3e	3.4792018
24	0x40120af4	2.2819185
25	0x3fe98ce7	1.8246125
26	0xc0405f7c	-3.005828
27	0x4069003c	3.6406393
28	0x401a3e4c	2.4100523
29	0xbf56f71e	-0.8397082
30	0x404e954a	3.227862
31	0x405baa2d	3.4322617
32	0x40211db9	2.5174391
33	0x404cb753	3.1986892
34	0x4097403b	4.7265906
35	0x402bba61	2.6832507
36	0x40576992	3.3658185
37	0x40b18457	5.547405
38	0x4053b1df	3.3077314
39	0xbffeea52	-1.9915259
40	0x404ea017	3.228521
41	0x4043be38	3.058485
42	0x400422c2	2.0646214
43	0x3fe33c80	1.7752838
44	0xbfc1480c	-1.5100112
45	0xbf97bc9c	-1.1854434
46	0xbf763ad6	-0.96183527
47	0x4042e799	3.0453856
48	0x40354339	2.832228
49	0x40286011	2.6308634
50	0x40760622	3.8441243
51	0xc017f76a	-2.374476
52	0x400950f9	2.1455672
53	0x4014aa6d	2.322902
54	0x40557253	3.3351028
55	0x40483a1b	3.1285465
56	0xbd06bf50	-0.032897294
57	0xc07c1ceb	-3.939265
58	0x408d8e0e	4.4235907
59	0xbfd4e0d2	-1.663111
60	0x40635189	3.5518515
61	0xbec2b7bc	-0.38030803
62	0xc02294e7	-2.5403383
63	0x40566922	3.3501668
64	0x403baa77	2.9322793
65	0x4050dea4	3.263589
66	0xbff1c5f9	-1.8888541
67	0x401ce675	2.451566
68	0xbff5e266	-1.9209716
69	0x404e2c38	3.221449
70	0xbfe84866	-1.8147094
71	0x40691844	3.642106
72	0xbeaa685a	-0.3328274
73	0x40519f70	3.2753563
74	0x4051b878	3.276884
75	0x40383bb6	2.8786445
76	0x40419fef	3.0253866
77	0x405be191	3.4356425
78	0x4046b73b	3.1049335
79	0xbfd532d7	-1.665614
80	0x403ca0a1	2.947304
81	0x4015bb36	2.3395514
82	0xbeeb1056	-0.459109
83	0x3ffe54b1	1.9869596
84	0xbf964476	-1.1739643
85	0xbf872830	-1.0559139
86	0x3f41e14b	0.75734395
87	0xbfedea11	-1.8587056
88	0x3fbf98c0	1.4968491
89	0x40038a34	2.0553102
90	0x40e038ea	7.0069475
91	0xbfcda271	-1.6065198
92	0x40279f7c	2.6191092
93	0x405b1bd1	3.4235728
94	0xbfbd67e8	-1.4797335
95	0x40896f6e	4.2948523
96	0x404f9bbb	3.24388
97	0xbfaec73f	-1.3654555
98	0x3f9aa3ea	1.2081273
99	0x3ff05da8	1.8778582
100	0xbef70c94	-0.48251784
101	0xbe0b6eec	-0.13616532
102	0x40301cc8	2.7517567
103	0xc0246bc3	-2.5690773
104	0x40403685	3.0033276
105	0xc027e84d	-2.6235535
106	0x404170d7	3.0225122
107	0xc05f240d	-3.4865754
108	0x404b4396	3.176
109	0x401a45ba	2.4105058
110	0xc02c6e57	-2.6942346
111	0xc00130af	-2.0185964
112	0x4052a890	3.2915382
113	0x4016d6f4	2.3568697
114	0x4051e236	3.2794318
115	0xbfbeb567	-1.489911
116	0x4048b8ab	3.1362712
117	0xc0327e09	-2.7889426
118	0x4082db5d	4.0892777
119	0xc009a5d7	-2.150747
120	0xbf893e19	-1.0722076
121	0x40871fcf	4.222633
122	0xc02670ef	-2.600643
123	0x406d3bf4	3.7067842
124	0xbfdb94c7	-1.7154778
125	0x4035532e	2.833202
126	0x401ac208	2.4180927
127	0x401b4022	2.4257894

conv2.weight f4 [128, 128, 2, 2]
0	0x3e772f57	0.24139152
1	0xbeb02788	-0.3440516
2	0x3e8201c6	0.25391978
3	0xbd39fdc6	-0.045408033
4	0x3f59a049	0.850102
5	0x3ea44495	0.32083574
6	0x3f7dac43	0.99090976
7	0x3e5cb94c	0.2155506
8	0x3f1c2c97	0.6100554
9	0x3f8f113f	1.1177138
10	0x3f53513c	0.8254583
11	0x3f85dfb9	1.04589
12	0x3e9f870a	0.31157714
13	0xbc1421ea	-0.009041289
14	0x3f260bd7	0.64861816
15	0x3cb6c190	0.022309095
16	0x3f2dce98	0.6789336
17	0x3c4246d1	0.011857704
18	0x3f4448cf	0.766736
19	0x3ebec1bb	0.3725718
20	0x3ede1b9e	0.43380445
21	0x3e392ec2	0.18084243
22	0x3f5583b9	0.8340412
23	0xbe5690bd	-0.20953651
24	0xbf848aec	-1.0354896
25	0x3e897b09	0.2685168
26	0xbf64dae9	-0.8939653
27	0xc00c5386	-2.1925979
28	0x3eab8a5d	0.33504
29	0x3f905a17	1.1277493
30	0x3ee91344	0.4552251
31	0x3f43ad20	0.7643604
32	0x3f018c18	0.5060439
33	0xbdc83600	-0.09775925
34	0x3f1e4dac	0.6183727
35	0xbc934962	-0.017979328
36	0x3f7dddac	0.9916637
37	0x3f341404	0.7034304
38	0x3f74d79d	0.956415
39	0x3ef61e9c	0.48070228
40	0x3d810bf9	0.06301112
41	0xbf6c49be	-0.9230002
42	0xbe833bf2	-0.25631672
43	0x3e85ddc8	0.26145768
44	0xc0371348	-2.8605518
45	0xbe37a612	-0.17934445
46	0xc051f097	-3.2803094
47	0xc019493e	-2.3950953
48	0x3f8be28e	1.0928514
49	0x3eef3f93	0.4672819
50	0x3f989143	1.191933
51	0x3ee4c220	0.44679356
52	0xbf972c2a	-1.1810353
53	0xbee22a26	-0.44172782
54	0xbfa0b23d	-1.2554394
55	0xbfe15986	-1.7605445
56	0xbfbdfbed	-1.4842507
57	0x3eac4b1e	0.3365106
58	0x3f839691	1.0280324
59	0xbe3230cb	-0.17401426
60	0x3ebeac3d	0.37240782
61	0xbecfb3e0	-0.4056692
62	0x3f2d5b2c	0.6771724
63	0x3e09a593	0.13442068
64	0xbe5844f5	-0.21120055
65	0xbe3c2cf4	-0.18376523
66	0x3f5bd161	0.8586636
67	0xbf2446de	-0.64170635
68	0xbf2521f0	-0.6450491
69	0x3e080898	0.13284528
70	0xbf5adf48	-0.8549695
71	0xbfc9cb40	-1.5765152
72	0x3f81d600	1.0143433
73	0x3f5559ad	0.8333996
74	0x3f736b18	0.9508529
75	0x3f379a08	0.7171941
76	0x3eb329b1	0.34992746
77	0x3eec4edf	0.46153924
78	0x3f7ac913	0.97963065
79	0x3f1179c5	0.5682643
80	0x3eb1953a	0.34684163
81	0xbe000ab5	-0.12504084
82	0x3f3be515	0.73396426
83	0xbe84b51f	-0.25919434
84	0x3e7675dc	0.24068397
85	0xba91bf1a	-0.0011119575
86	0x3ed92bc0	0.4241619
87	0xbf149999	-0.5804687
88	0x3eb54e41	0.35411265
89	0x3fbe04e9	1.4845248
90	0x40e9b24a	7.303014
91	0x40c5df00	6.1834717
92	0x3f87adec	1.0599952
93	0x3f1b58a6	0.6068214
94	0x3f922f0a	1.1420605
95	0x3f0b23ad	0.5435131
96	0x3f84d155	1.0376383
97	0x3eac1e9d	0.33617106
98	0x3f216199	0.6303955
99	0xbeaffb8f	-0.3437161
100	0x3f9b8208	1.2149057
101	0xbedd2b47	-0.4319708
102	0x3f4e2842	0.8053018
103	0x3f20815c	0.62697387
104	0x3ebe4881	0.3716469
105	0x3d5218e0	0.051293254
106	0x3f4fffc4	0.8124964
107	0x3d3fcab7	0.046824183
108	0x3f04a586	0.5181507
109	0x3f8cbb7e	1.0994718
110	0x3f9a3eab	1.2050375
111	0x3f8bafcf	1.0913028
112	0xbe8f7e32	-0.28025967
113	0xbe51a3cf	-0.20472644
114	0x3ee929fc	0.45539844
115	0xbf41e0d5	-0.7573369
116	0x3f11506b	0.56763333
117	0xbdea6f8f	-0.11447059
118	0x3f70a6c0	0.9400444
119	0x3e93c3e1	0.2886038
120	0x3fc558f3	1.541777
121	0x3f930609	1.1486217
122	0xbfa48612	-1.2853415
123	0x3f0076af	0.50181097
124	0x3eac7a6d	0.33687153
125	0x3fae98ab	1.364034
126	0xbd2fb6a6	-0.042898796
127	0x3f96f0e8	1.1792269
128	0x3f045dfd	0.51705915
129	0x3e5f86ff	0.2182884
130	0x3f520fe2	0.82055485
131	0xbe7ce160	-0.24695349
132	0x3f1324c1	0.57477957
133	0x3e2fd007	0.171692
134	0x3f07cc6b	0.5304629
135	0x3ea131e7	0.31483385
136	0x3f5b2617	0.85604995
137	0x3f7297b9	0.9476276
138	0x3f082f12	0.53196824
139	0xbe29a676	-0.16567406
140	0x3e396827	0.18106137
141	0x3eaaf702	0.33391577
142	0x3ebe9ded	0.37229863
143	0xbeaafbcb	-0.33395228
144	0xc04208c4	-3.031785
145	0x3fc382c1	1.5274278
146	0x3fd6e499	1.6788512
147	0x40bffcfd	5.9996324
148	0xbee11e24	-0.43968308
149	0xbe661ad5	-0.22471173
150	0xbfeb2f95	-1.8373896
151	0xbf267b14	-0.6503155
152	0x3f19944d	0.59991914
153	0x3ebf6086	0.3737833
154	0x3f35f5c2	0.7107812
155	0x3e26362a	0.162316
156	0x3f256936	0.64613664
157	0x3cb0fcc3	0.021604901
158	0x3f4bebb1	0.7965651
159	0x3e63e18b	0.22254007
160	0x3fbf5913	1.4949058
161	0x3f89bcbb	1.0760721
162	0x3f0e546f	0.55597585
163	0xbd95c30e	-0.07312594
164	0xc045a01e	-3.0878978
165	0x3e58229b	0.21106951
166	0x3fa67c1e	1.3006628
167	0x3f0bb5d7	0.5457434
168	0xbec374b2	-0.3817497
169	0xbe18c8d3	-0.14920358
170	0xbf72e94d	-0.9488724
171	0xbfbab48e	-1.4586351
172	0xbf05acc6	-0.52216756
173	0x3fa6d5fa	1.303405
174	0x3ed2c1aa	0.4116338
175	0x3f1a4317	0.6025862
176	0x3ea64a69	0.32478645
177	0xbef0b657	-0.47014114
178	0x3f03ca6a	0.51480734
179	0x3ea4ab65	0.32162014
180	0x3eea53bd	0.45767012
181	0xbe6000a0	-0.21875238
182	0x3f25abb5	0.6471513
183	0xbdedfe3d	-0.11620758
184	0x3f1943d5	0.5986913
185	0xbea0661e	-0.3132791
186	0x3f318c62	0.6935483
187	0xbf0d7a73	-0.5526497
188	0x3e9a9ff8	0.3020017
189	0x3eae1f5e	0.34008306
190	0x3f336bff	0.70086664
191	0xbe0a1ceb	-0.13487594
192	0x3f212e26	0.6296104
193	0x3dfdc6d1	0.12391437
194	0x3f39c826	0.7257103
195	0x3ee9d2d5	0.45668665
196	0xbe1e7a46	-0.15476331
197	0xbb45e8ef	-0.0030198654
198	0xbf7e9db2	-0.99459374
199	0xbfae4da9	-1.361745
200	0x3f0c38db	0.54774255
201	0xbfa4528f	-1.2837695
202	0xbe04e269	-0.12976994
203	0xc019a864	-2.4009027
204	0x3e7c651d	0.24647947
205	0xbd080167	-0.033204462
206	0x3f3f21bb	0.74660844
207	0xbe29688e	-0.1654379
208	0x3f2f700f	0.6853036
209	0x3ea4d0d0	0.3219056
210	0x3c347bea	0.011015872
211	0xbf3f60b2	-0.7475692
212	0xbd5c7791	-0.053824965
213	0xbe8b9dd6	-0.27268857
214	0xbf8a0443	-1.078255
215	0xc0025164	-2.0362177
216	0x3ea624de	0.32450002
217	0xbe3dcca4	-0.18535095
218	0x3e1237ef	0.1427915
219	0x3f94bb04	1.1619573
220	0x3f6b47cf	0.91906446
221	0x3edfe9e5	0.43733135
222	0x3f8b5866	1.0886352
223	0x3eddffab	0.43359122
224	0xbb027217	-0.0019904429
225	0xbb0ec9b5	-0.0021787707
226	0xbc1522d6	-0.009102544
227	0x3cacd5ac	0.02109798
228	0x3ee078e3	0.4384223
229	0xbe417200	-0.18891144
230	0x3f33a757	0.70177215
231	0xbc9958cd	-0.018719101
232	0x3e4fa5b3	0.20278053
233	0x3fa84e73	1.3148941
234	0x3eb62a72	0.35579258
235	0xbff0bdce	-1.8807924
236	0x3f02c39c	0.51079726
237	0xbe5499ed	-0.20761843
238	0x3f1f287b	0.62171143
239	0xbe1ec682	-0.15505412
240	0x3f0bd693	0.5462429
241	0x3f2391a2	0.63894093
242	0x3e2b378e	0.16720411
243	0x3ee126b9	0.43974856
244	0xbc248692	-0.01004185
245	0xbc55c0f6	-0.013046494
246	0xbc8799f0	-0.016552895
247	0xbc7cc9f3	-0.015429008
248	0x3ed6978a	0.4191249
249	0xbdd167be	-0.102248654
250	0x3f53c5c8	0.82723665
251	0xbe8af762	-0.27141863
252	0x3df032d5	0.117284454
253	0xbe76f065	-0.2411514
254	0x3e2b8290	0.16749024
255	0xc02003ff	-2.500244

conv2.bias f4 [128]
0	0x400e5a59	2.2242644
1	0x4003f76a	2.061976
2	0xbfb5f897	-1.4216489
3	0xbcec644a	-0.028856415
4	0xbfc5276d	-1.5402657
5	0x4078b35b	3.885947
6	0x404fd739	3.2475111
7	0x4085fa38	4.1867943
8	0x403e7a9e	2.976234
9	0xbfbbdf85	-1.4677588
10	0x4023370c	2.5502348
11	0x4087e0cb	4.2461905
12	0xbefac5bd	-0.48978987
13	0x405a89fe	3.4146724
14	0x40347268	2.8194828
15	0x4041094d	3.0161927
16	0x405d3764	3.4565058
17	0x3f2db231	0.67850024
18	0x3f8747a5	1.0568739
19	0x40484d06	3.1297011
20	0xbfc9e692	-1.577349
21	0x402e8f61	2.7275012
22	0xbf3b9cac	-0.7328594
23	0x4022b91f	2.542549
24	0x400fec47	2.2487962
25	0x3fee89b3	1.8635772
26	0x402e6a12	2.725224
27	0xbfc334ed	-1.5250527
28	0xbb804e2a	-0.003915568
29	0x403afb5c	2.9215918
30	0xbfc771d7	-1.5581616
31	0x404ee623	3.2327964
32	0x40840ca1	4.1265416
33	0xbfc54180	-1.5410614
34	0x401e8152	2.476643
35	0x400e01bd	2.218856
36	0x4034b553	2.8235672
37	0x40414565	3.0198605
38	0x3f85cc81	1.0453035
39	0x4028c073	2.6367462
40	0xbc687f09	-0.014190444
41	0x3ec5744c	0.3856529
42	0x3fe624c6	1.7979972
43	0x40041740	2.063919
44	0x4054dd22	3.3259969
45	0x401e189b	2.4702518
46	0xbfa99ede	-1.3251607
47	0x3fac474e	1.345926
48	0x40405faa	3.0058389
49	0x403a1c06	2.9079604
50	0x404ae94b	3.170489
51	0x405bdeec	3.435481
52	0x40133a82	2.300446
53	0x40b302fe	5.5941153
54	0x3ff38c4b	1.9027189
55	0x4022c161	2.543053
56	0x40285ec9	2.6307852
57	0x4023fd36	2.5623298
58	0x4027cd71	2.6219141
59	0x405717c2	3.360825
60	0xbd2a5ebd	-0.041594256
61	0x4005d6b5	2.0912297
62	0x4041187c	3.0171194
63	0xbfbb3579	-1.4625694
64	0x4025baad	2.5895188
65	0x403852ef	2.8800619
66	0x406162ed	3.521663
67	0x400ed6c6	2.2318587
68	0xbc7a0e72	-0.015262233
69	0x40449781	3.071747
70	0x3ff20808	1.8908701
71	0xbfb68e4a	-1.4262173
72	0x40780d42	3.8758092
73	0x4037f871	2.8745387
74	0xbfb4e30c	-1.4131789
75	0xbfbc9507	-1.473298
76	0xbfc823bc	-1.5635905
77	0x4031088e	2.7661471
78	0xbd36c613	-0.044622492
79	0xbd531794	-0.051536158
80	0x40c004bb	6.0005774
81	0x3f4f3f17	0.8095564
82	0x40444faa	3.0673623
83	0x40373221	2.8624346
84	0x3e810334	0.25197756
85	0x401e188c	2.4702482
86	0x402e06bb	2.7191608
87	0xbf8e4fdb	-1.111812
88	0x4032f3c9	2.7961295
89	0xbf29d739	-0.6634403
90	0x4009fec8	2.1561756
91	0x4027dc28	2.6228123
92	0x40222db1	2.5340388
93	0x3fd36fc7	1.6518487
94	0x4041f502	3.030579
95	0x3fcd0dfa	1.601989
96	0x401e4553	2.4729812
97	0xbfc3341c	-1.5250278
98	0x402e955e	2.7278666
99	0x4024ca52	2.5748487
100	0x4018d58b	2.3880336
101	0xbd230854	-0.039802864
102	0xbfc55148	-1.541543
103	0x403c22d5	2.939626
104	0x40929127	4.580219
105	0xbd1286ef	-0.035773214
106	0x3f0941dd	0.53616124
107	0xbccb830b	-0.02484276
108	0x3f62cda8	0.88595057
109	0xbf823403	-1.0172123
110	0xbf9cd4e9	-1.2252475
111	0xbfc9166c	-1.5709968
112	0xbf01890a	-0.5059973
113	0x40755fd6	3.8339744
114	0x401a8b14	2.4147387
115	0xbfc0ba10	-1.5056782
116	0x401377a7	2.304178
117	0xbfd0baa4	-1.6306958
118	0xbfbd6f7a	-1.4799645
119	0xbef92d37	-0.4866731
120	0xbf83efb0	-1.0307522
121	0x3b8dd06b	0.004327824
122	0x4061a383	3.525605
123	0x4093eb66	4.622485
124	0x401169c3	2.2720802
125	0xbfbe66c4	-1.4875112
126	0x40602d18	3.5027523
127	0xbcd491f8	-0.02594851

fc1.weight f4 [128, 512]
0	0x3c91e006	0.017807018
1	0xbd2dd4c1	-0.042439226
2	0x3c8bf9d7	0.017086906
3	0xbd1c3cf7	-0.038144078
4	0x3c420e35	0.0118442075
5	0xbc22f0bd	-0.009945092
6	0xbb493126	-0.003069946
7	0x3c3b4f9c	0.011432555
8	0xbc9f239a	-0.019426156
9	0xbc8a1aa8	-0.016858414
10	0x3bf2c158	0.0074083023
11	0xbd09e27e	-0.033663265
12	0x3cb22f3d	0.02175104
13	0xbd277dc4	-0.040891424
14	0xbc48aac7	-0.012247748
15	0x3c2b0e10	0.0104403645
16	0xbc85044f	-0.016237406
17	0xbbfd2176	-0.007724936
18	0xbd176e57	-0.036970463
19	0x3c42b373	0.011883604
20	0xbcb19bc8	-0.021680728
21	0x3ba1f9cd	0.0049431087
22	0xbc3e7460	-0.011624426
23	0x3ce64f56	0.028114002
24	0xbcabdf66	-0.020980548
25	0xbc8b532f	-0.017007438
26	0xbcc60824	-0.024173804
27	0x3bf40e0e	0.0074479645
28	0xbd1e2f71	-0.038619462
29	0xbba65478	-0.0050759874
30	0x3c99a032	0.018753145
31	0xbceb34f1	-0.028711768
32	0xbcbbe760	-0.022937477
33	0xbcceb7b2	-0.025234077
34	0x3d262323	0.040560853
35	0x3cfcb5f3	0.030848479
36	0x3cf30a72	0.029668067
37	0xbd3409fa	-0.043954827
38	0xbcaa6f89	-0.020805137
39	0xbc328fb6	-0.010898521
40	0x3b128a1a	0.0022360147
41	0x3c108f3a	0.00882321
42	0xbb60643c	-0.0034239432
43	0xbd4cb8af	-0.049980816
44	0x3bbf88fe	0.005845188
45	0x3cf124ad	0.029436434
46	0x3cd6699f	0.026173411
47	0x3d192505	0.03738882
48	0xbd275680	-0.040853977
49	0xbc281283	-0.01025832
50	0x39e2a2d1	0.00043227387
51	0x3cecf20a	0.028924007
52	0x3b8ed212	0.0043585384
53	0xbba9e502	-0.0051847706
54	0xbd032b92	-0.032023974
55	0xbcd31fd2	-0.025772009
56	0xbd1c3e73	-0.038145494
57	0x3cb6a838	0.02229701
58	0xbc8ae8a7	-0.01695664
59	0xbbd755a5	-0.006571489
60	0xbcc6f7f6	-0.024288159
61	0x3c51d276	0.012806525
62	0x3c044eca	0.008075425
63	0xbce93180	-0.028465986
64	0x3c626b87	0.013819582
65	0x3c98da59	0.018658804
66	0xbc425d29	-0.011863031
67	0xbd11492e	-0.03547018
68	0x3c9621c0	0.01832664
69	0xbc72b9b0	-0.014814779
70	0xbcda7d84	-0.026671179
71	0x3cab30eb	0.02089735
72	0x3d310871	0.04322094
73	0x3c5a454d	0.013322187
74	0x3cf00d0e	0.0293031
75	0xbd1c641f	-0.03818142
76	0xbc301f1c	-0.010749605
77	0x3c295f76	0.010337701
78	0x3d17eebd	0.037092913
79	0x3c23f3ea	0.010006884
80	0xbcad6197	-0.021164699
81	0x3cc30855	0.023807684
82	0xbd0aed06	-0.03391745
83	0x3c7badcd	0.015361262
84	0xbd0203ba	-0.031741835
85	0xbc9827b7	-0.018573625
86	0x3d0dedfb	0.034650784
87	0x3d21e8dd	0.039528716
88	0x3cb28033	0.021789646
89	0xbd1fe72d	-0.039038826
90	0xbc00b5f6	-0.007855883
91	0xbc6311c4	-0.013859216
92	0xbcec8db2	-0.02887616
93	0x3c6e6afb	0.014551873
94	0x3ccb8afa	0.024846543
95	0xbc14946d	-0.009068591
96	0xbc74a45c	-0.014931764
97	0xbb66a398	-0.0035192724
98	0xbcd652b4	-0.026162483
99	0xbcdde0b6	-0.02708469
100	0xbd2e695b	-0.042580944
101	0x3cca53e4	0.024698205
102	0x3c2a8a68	0.010408975
103	0x3bbd3b17	0.0057748663
104	0xbd232f47	-0.03984001
105	0x3c8b0c86	0.016973745
106	0x3d2d7f78	0.04235789
107	0x3ce9392e	0.028469648
108	0x3cf58ec4	0.029975303
109	0xbcf778ca	-0.030208964
110	0xbd320d5a	-0.043469764
111	0x3d012ba9	0.03153578
112	0xbc35bd27	-0.011092461
113	0x3cf91546	0.030405652
114	0x3cc6183a	0.024181474
115	0xbba53b4e	-0.00504247
116	0xbd0419b6	-0.032251082
117	0xbbe87dc0	-0.0070950687
118	0x3c54ea5a	0.012995327
119	0x3d188f37	0.037245955
120	0xbce1d38f	-0.0275667
121	0x3d1037d0	0.035209477
122	0x3c3c77bc	0.011503156
123	0xbd017361	-0.031604175
124	0xbcb81072	-0.02246878
125	0xbcb94fd1	-0.022621067
126	0xbd1e6423	-0.038669717
127	0xbd22431a	-0.039614774
128	0xbd13921a	-0.036028005
129	0xbb9e727e	-0.004835426
130	0xbb436779	-0.0029816313
131	0x3b90ace2	0.0044151405
132	0xbab6f82b	-0.0013959458
133	0x3c1f52c4	0.009724323
134	0x3b5975c5	0.0033181768
135	0xbc981f5b	-0.018569639
136	0x3c95daad	0.01829275
137	0x3c253e11	0.010085599
138	0xbd234259	-0.039858196
139	0xbbd07bab	-0.0063623986
140	0xbc73b19f	-0.014873891
141	0xbc99a024	-0.018753119
142	0xbc3f4b63	-0.011675688
143	0xbd19c1a7	-0.037538197
144	0xbcb2951e	-0.02179962
145	0xbc1d3e04	-0.009597305
146	0xbc40c58e	-0.011765851
147	0xbd054265	-0.032534022
148	0xbc4a0891	-0.012331144
149	0xbcd6873a	-0.026187528
150	0xbd29c159	-0.041444156
151	0xbcba2fc2	-0.02272785
152	0xbd33319e	-0.04374849
153	0xbcbf36e2	-0.0233416
154	0xbcf990d8	-0.030464575
155	0x3cd706b7	0.02624832
156	0x3cefbd38	0.029265031
157	0xbd30b63d	-0.043142546
158	0xbca661da	-0.020310331
159	0x3d0458fb	0.03231142
160	0xbb66b387	-0.0035202221
161	0x3ccf39cd	0.025296116
162	0xbcc2c8d4	-0.023777403
163	0x3c7d1579	0.015447014
164	0xbd13c739	-0.036078665
165	0x3ca444de	0.02005237
166	0xbd23af33	-0.039962005
167	0x3c5868e3	0.013208601
168	0xbcc70902	-0.024296287
169	0xbb3aed79	-0.0028522892
170	0xbc75fed6	-0.015014371
171	0x3d08e09b	0.033417325
172	0xbc3b0258	-0.011414133
173	0x3c5ffd03	0.013671163
174	0x3d339c94	0.043850496
175	0x3c9ac4cb	0.018892666
176	0xbd1dc62c	-0.03851907
177	0xbc8fd5ae	-0.017557945
178	0xbce17efc	-0.027526371
179	0xbd226fe1	-0.039657477
180	0x3c2d7572	0.010587083
181	0x3bf74ffe	0.0075473776
182	0x3cd740ac	0.026275955
183	0x3d1aa0e9	0.037751112
184	0x3ca7368e	0.020411756
185	0xbd221d39	-0.03957865
186	0x3cf4cbca	0.02988233
187	0xbccf5751	-0.02531019
188	0xbb87a4d2	-0.004139521
189	0x3d066940	0.032815218
190	0xbd1264c2	-0.03574062
191	0xbcc28db8	-0.023749217
192	0xbd0af070	-0.033920705
193	0x3d109b58	0.035304397
194	0x3d1912ad	0.037371326
195	0x3ce7a820	0.02827841
196	0xbd2b6fa0	-0.0418545
197	0x3c6404a8	0.013917126
198	0xbcf256e5	-0.02958245
199	0x3c012a53	0.007883626
200	0x3c310c3e	0.010806141
201	0x3a09e6a9	0.00052605063
202	0xbc945858	-0.018108532
203	0x3d145c6b	0.03622095
204	0xbc8c44fc	-0.017122738
205	0xbd3b1ed7	-0.045683708
206	0x3d06b278	0.032885045
207	0xbc679171	-0.014133797
208	0xbc3c59b1	-0.0114959935
209	0xbb85aca7	-0.0040794197
210	0x3cca3ba0	0.024686635
211	0xbce90aec	-0.02844759
212	0xbc698e19	-0.01425507
213	0x3d0cd359	0.034381244
214	0x3d227d58	0.03967032
215	0x3ce8bf1a	0.028411437
216	0x3c66a7d3	0.014078098
217	0xbca711e0	-0.020394266
218	0xbc60e293	-0.0137258945
219	0x3c63975c	0.013891067
220	0x3bc6c3ef	0.0060658376
221	0xbbfcbfc3	-0.0077132895
222	0x3ca986b6	0.020694118
223	0x3d02b058	0.031906456
224	0xbb813ea1	-0.0039442335
225	0xbd1554c1	-0.03645778
226	0xbcf976db	-0.030452183
227	0xbc8b78f0	-0.01702544
228	0xbc1d30bd	-0.00959414
229	0xbb177176	-0.00231084
230	0xbb90c8ba	-0.0044184597
231	0x3c77924a	0.015110562
232	0xbcd63752	-0.026149426
233	0xbb3e8475	-0.002907065
234	0xbd018e26	-0.031629704
235	0xbc72627f	-0.014793991
236	0xbd344872	-0.0440144
237	0x3b7b6052	0.0038356972
238	0x3cd6c828	0.026218489
239	0x3c4f59cd	0.0126556875
240	0x3c4b820f	0.012421145
241	0x3d194e5f	0.037428256
242	0xbcf6a15d	-0.03010624
243	0x3b9b5694	0.0047405455
244	0xbd180c53	-0.03712113
245	0xba5e95a7	-0.0008490928
246	0x3d0868c4	0.033303037
247	0xbc84b9f9	-0.01620196
248	0x3b8e8a1f	0.0043499614
249	0xbcc265a8	-0.023730114
250	0xbd46e724	-0.048560277
251	0xbd2b3453	-0.041797947
252	0xbc2e4eae	-0.010638876
253	0xbd0bb604	-0.03410913
254	0xbc5bd3e2	-0.013417216
255	0xbd0e6de4	-0.03477277

fc1.bias f4 [128]
0	0xbd2c8ed0	-0.042128384
1	0xbd3c51ed	-0.045976568
2	0x3edb89d6	0.42878598
3	0x3fda9413	1.7076439
4	0x4033ebe5	2.8112729
5	0xbd33c4b6	-0.04388877
6	0x405c7dd4	3.44518
7	0x3f0a1717	0.5394148
8	0x3cd15027	0.025550915
9	0x4054be27	3.324106
10	0xbd035f13	-0.03207309
11	0x388d6d5c	6.743774e-05
12	0x400530f1	2.0811121
13	0x3fc81c10	1.5633564
14	0x40210454	2.5158892
15	0x3f810890	1.0080738
16	0x3e94deb5	0.29076162
17	0x404b3f9c	3.1757574
18	0x402eb424	2.729745
19	0x405e9c50	3.4782906
20	0xbcb15d19	-0.021650838
21	0x3e269b23	0.16270117
22	0x405b7c57	3.429464
23	0xbd0d9604	-0.034566894
24	0x3e28321f	0.1642537
25	0xbd09b471	-0.033619348
26	0x3e8de552	0.2771402
27	0xbce7b35f	-0.028283773
28	0x40567175	3.3506749
29	0x400aabdb	2.1667392
30	0x3f85ee12	1.0463278
31	0x3f8b9856	1.0905864
32	0x3fd3c6b5	1.6545016
33	0xbce6cff3	-0.02817533
34	0x404d1cc9	3.204882
35	0xbc9391af	-0.018013803
36	0xbcfad05c	-0.030616932
37	0x4056006b	3.3437755
38	0x4054448c	3.3166838
39	0x3eb82f84	0.35973752
40	0x400beae9	2.1862128
41	0x3eebfbe7	0.46090624
42	0x403ec42a	2.980723
43	0x3f9a4400	1.2052002
44	0x405aad00	3.416809
45	0x3c71e082	0.0147629995
46	0x40135ce5	2.3025448
47	0x401baa9c	2.4322882
48	0x3ca468bd	0.020069474
49	0x407379ba	3.8043046
50	0xbd028be9	-0.03187171
51	0x3f890a65	1.0706297
52	0x3c8c1ca6	0.017103504
53	0x3fde9007	1.7387704
54	0x40474382	3.1134953
55	0x404806dc	3.1254187
56	0xbd411204	-0.04713632
57	0x3b31b651	0.0027116726
58	0x403b8207	2.9298112
59	0x404d11e9	3.2042181
60	0x3bb4dc09	0.0055193943
61	0xbc119575	-0.008885731
62	0x404dd164	3.2159052
63	0x406e864e	3.7269473
64	0x3f81b2b5	1.0132662
65	0xb953a7d0	-0.00020185043
66	0x3d87f7a3	0.0663903
67	0x3f4dd146	0.8039745
68	0xbd53d2e9	-0.05171481
69	0x3f46fb0a	0.77726805
70	0xb98e36a3	-0.00027125058
71	0x3ea3e51e	0.3201074
72	0x4000f562	2.014977
73	0x3ede5ac7	0.43428633
74	0x407a2880	3.908722
75	0x406b15d7	3.673208
76	0x405458ce	3.3179202
77	0x4023ab65	2.557336
78	0x407b9f79	3.9316084
79	0x3f3424d5	0.703687
80	0xbcb1da1c	-0.021710448
81	0xbc8883bc	-0.016664378
82	0x3f82d5c7	1.022149
83	0x401d6818	2.4594784
84	0x3ff72056	1.9306743
85	0x3dc85a5d	0.097828604
86	0x3faa24f4	1.3292527
87	0x3ed7a672	0.42119175
88	0x4040fe4e	3.0155215
89	0xbc405d2c	-0.011740964
90	0xbd1c4b2a	-0.03815762
91	0x4032a391	2.7912333
92	0x3c5dc9e9	0.013536909
93	0x402eac20	2.7292557
94	0x3ff23596	1.8922603
95	0xbcf9fcd0	-0.030516058
96	0x3fc8c739	1.5685798
97	0x3cc21ee8	0.023696378
98	0x3c9d6db7	0.019217355
99	0x3cbc3a07	0.022976888
100	0x4045494c	3.0825987
101	0x3fbbdb0f	1.4676226
102	0x4025809a	2.5859742
103	0xbd03c2b5	-0.03216811
104	0x3e171b08	0.14756405
105	0x3bd7a67a	0.006581125
106	0xbd501924	-0.050805226
107	0x4058668a	3.3812585
108	0x40339a01	2.8062747
109	0xbcef8c31	-0.029241653
110	0x3df6c994	0.12050167
111	0x3f41b2f6	0.756637
112	0x3fe22d26	1.7670028
113	0x3ee36124	0.4441005
114	0x402adb4f	2.6696355
115	0x3fb32e6e	1.3998544
116	0x40501802	3.2514653
117	0x3cbead85	0.0232761
118	0x3f15eabc	0.585613
119	0x404a0206	3.1563735
120	0x407a4134	3.9102297
121	0x3f99fd04	1.2030339
122	0x4025e642	2.5921788
123	0x3feb1e38	1.8368597
124	0x406e65e7	3.7249696
125	0x406c5731	3.6928217
126	0xbae0ba17	-0.0017145303
127	0x40704680	3.754303

fc2.weight f4 [4, 128]
0	0x3d19408a	0.037415065
1	0xbc51d6a3	-0.012807521
2	0x3f865555	1.0494791
3	0x406449b1	3.5669978
4	0x3ff12047	1.8837975
5	0xbd02056d	-0.031743456
6	0x402cf366	2.7023559
7	0x40284698	2.6293087
8	0xbd912a28	-0.07088119
9	0x4046d1f1	3.1065638
10	0x3d832a68	0.06404573
11	0xbd872620	-0.06599069
12	0x401be9cc	2.4361448
13	0x4085f390	4.1859818
14	0x40b4f0a2	5.654374
15	0xbfd54ac7	-1.6663445
16	0x3ff8d4f9	1.9439994
17	0x40a81377	5.252376
18	0x4087fbeb	4.2495017
19	0x4045f091	3.092808
20	0xbc99beff	-0.018767832
21	0x40007635	2.0072148
22	0x403ba0ed	2.9316971
23	0xbbc5b7f9	-0.006033894
24	0x3b264709	0.002537193
25	0xbd9a8069	-0.075440235
26	0x3ffa1366	1.953717
27	0xbced41c9	-0.028962033
28	0x406ba4e9	3.6819403
29	0x400cbadf	2.1989057
30	0xbfdef114	-1.7417321
31	0x3f85b9d9	1.0447341
32	0x403ffa0f	2.9996374
33	0xbd6a5083	-0.05720569
34	0x3fd4a072	1.6611464
35	0xbd64c985	-0.055856247
36	0xbd316778	-0.043311566
37	0x40974eea	4.728383
38	0x402e1dff	2.7205808
39	0x402592ab	2.587077
40	0x40396c32	2.8972287
41	0x4038260b	2.877322
42	0x405a6ab1	3.412762
43	0x3fe57d67	1.7928895
44	0x40928b7c	4.579527
45	0xbd41c322	-0.047305234
46	0x40454921	3.0825884
47	0xc06e93fd	-3.7277825
48	0xbd514330	-0.051089466
49	0x404ad43f	3.1692045
50	0xbd100dd2	-0.03516943
51	0xbfd34440	-1.6505203
52	0x3cfcfc30	0.030881971
53	0x404fe4b1	3.2483332
54	0x4096874a	4.704015
55	0x3f1dc420	0.6162739
56	0xbd858f21	-0.0652144
57	0xbd17858e	-0.036992602
58	0x4084382e	4.131858
59	0x401c69e0	2.443962
60	0xbd9f4da0	-0.07778478
61	0xbca59250	-0.020211369
62	0x4074c250	3.82436
63	0x405cb07e	3.4482722
64	0xbfd1191c	-1.6335788
65	0xbccf4a93	-0.025304114
66	0xbced0ff7	-0.028938277
67	0x4018a273	2.384915
68	0x3d2b7f41	0.041869406
69	0x4081d7f6	4.0576124
70	0x3bddb7df	0.006766304
71	0x40338cb6	2.8054633
72	0x402b028c	2.6720304
73	0x4020233b	2.5021503
74	0x400a52ed	2.1613114
75	0x40183443	2.3781898
76	0x403e7ad0	2.9762459
77	0x40a07f38	5.0155296
78	0x3fefa6f1	1.8722821
79	0x403fefef	2.9990194
80	0xbd91a94a	-0.071123675
81	0xbd13b592	-0.03606183
82	0xbfe2474c	-1.7678008
83	0x40603661	3.503319
84	0x409449ec	4.6340237
85	0x401d97c7	2.4623888
86	0x40a10014	5.0312595
87	0x40081801	2.126465
88	0x4085f651	4.186318
89	0xbd827a7c	-0.06371018
90	0xbd84d07a	-0.06485076
91	0x40922839	4.56741
92	0xbc6c9270	-0.01443921
93	0x3f572cd4	0.8405278
94	0x400235f4	2.034543
95	0xbd8924e9	-0.06696493
96	0xbfbb5f47	-1.4638451
97	0xbd1c2634	-0.03812237
98	0xbd571692	-0.05251176
99	0xbd7f67e5	-0.06235494
100	0x409333fe	4.6000967
101	0xbf13e1cd	-0.5776642
102	0x4097fa95	4.7493386
103	0xbd1ce709	-0.03830627
104	0x401e28b4	2.4712343
105	0x3cd02773	0.025409436
106	0x3b13dc39	0.0022561683
107	0x4027cac1	2.62175
108	0x406cee5b	3.702048
109	0xbcb327e8	-0.021869615
110	0x3b9ed657	0.0048473286
111	0x3f892c00	1.0716553
112	0x404ace3d	3.1688378
113	0x40007433	2.0070922
114	0x4063d650	3.5599556
115	0x3faddfa4	1.3583875
116	0x40156218	2.3341122
117	0x3caaea8c	0.020863794
118	0x3fd6d307	1.678315
119	0x4099ea31	4.809838
120	0x3fd0f639	1.6325141
121	0xbfc1a191	-1.5127431
122	0x4083398e	4.1007757
123	0xc0b21402	-5.5649424
124	0x408608aa	4.1885576
125	0x4049aa18	3.1510067
126	0xbd9d1620	-0.07670236
127	0x408ff5c9	4.498753
128	0xbd101b1e	-0.03518211
129	0x3d825b15	0.06365029
130	0x401b12e3	2.4230278
131	0x4077fc06	3.8747573
132	0x40b53139	5.6622586
133	0xbd8973e1	-0.06711555
134	0x4027d0c4	2.622117
135	0x403afb61	2.921593
136	0xbc65be6f	-0.014022454
137	0x3fda95dc	1.7076983
138	0x3c70d833	0.014699983
139	0x3d194846	0.03742244
140	0x409d9141	4.923981
141	0x40a284e5	5.0787225
142	0x402d06b5	2.7035344
143	0xbfceb577	-1.6149129
144	0x40166e6b	2.3504894
145	0x3fd63855	1.6735941
146	0x408dfed0	4.437355
147	0x3fc608fa	1.547149
148	0xbd78abb1	-0.060710613
149	0x3ff48711	1.9103719
150	0xbfc738f1	-1.5564252
151	0xbd8287b9	-0.06373543
152	0x3dfa9a8f	0.12236511
153	0xbd81c7fd	-0.06336973
154	0x40316bcf	2.772205
155	0xba549e68	-0.00081107626
156	0xbc9e0db5	-0.019293645
157	0x40820f73	4.064386
158	0xbfd7421d	-1.6817051
159	0x3f4d885d	0.802862
160	0x3f51fd75	0.8202737
161	0xbcb1e875	-0.02171729
162	0x409aa126	4.8321714
163	0x3cb69b75	0.022290925
164	0xbcc01e56	-0.023451965
165	0x40a1041d	5.031752
166	0x40540701	3.3129275
167	0x3fd7f206	1.6870735
168	0x3fd4226e	1.6573007
169	0x408268ce	4.0752935
170	0x40048747	2.0707567
171	0x3f8547d1	1.0412542
172	0x407be7b5	3.9360173
173	0xbd841912	-0.06450094
174	0x407573fd	3.8352044
175	0x4076cc4e	3.8562198
176	0x3d88e766	0.06684761
177	0x40aa2d08	5.317997
178	0xbd582e46	-0.052778505
179	0xbfdb7819	-1.7146026
180	0xbd8d7c09	-0.069084235
181	0x4022e714	2.545354
182	0x4039ffe3	2.906243
183	0x40971596	4.721385
184	0x3d228bb0	0.039683998
185	0x3d09d248	0.033647805
186	0x409d0f2d	4.9081025
187	0x4069381c	3.6440496
188	0xbc615936	-0.01375418
189	0x3da917fe	0.08256529
190	0x3fb204b8	1.390769
191	0x402fcd50	2.7469063
192	0xbfcf6e02	-1.6205447
193	0xbd5e7447	-0.05431011
194	0x3d050dd5	0.032483894
195	0x3fa54647	1.2912072
196	0xbc70cde8	-0.014697529
197	0x40090940	2.1411896
198	0xbda0e476	-0.078560755
199	0x405d0dda	3.4539704
200	0x3f865d0b	1.0497144
201	0x3f8cd0d0	1.1001225
202	0x3fa87f3a	1.3163826
203	0x406f98e3	3.7437065
204	0x3fed86ba	1.855674
205	0x3f6afc77	0.9179148
206	0x40644aee	3.5670733
207	0x406f91a1	3.7432635
208	0x3c8bacb2	0.017050121
209	0xbd2709c0	-0.040780783
210	0xbfcab231	-1.583563
211	0x40426ee3	3.038018
212	0xc0d6b93b	-6.710111
213	0x3ff1c89b	1.8889345
214	0x40874bf5	4.228022
215	0x3fbed115	1.4907557
216	0x402a0148	2.6563282
217	0xbd48be46	-0.049009584
218	0xbc1e587a	-0.009664649
219	0x408e34b9	4.443936
220	0x3d7bb7e9	0.061454687
221	0x3fbe8321	1.4883767
222	0x4019602e	2.3964953
223	0x3daf3d64	0.08556631
224	0xbfa9eb0f	-1.3274859
225	0xbd3167ad	-0.043311764
226	0x3ca6df7d	0.02037024
227	0xbce3baa7	-0.027798964
228	0x41013fd2	8.078081
229	0xbfb3c534	-1.4044557
230	0x4025252c	2.5803938
231	0xbcab58dc	-0.020916395
232	0x3ffa4ff4	1.955565
233	0xbd40f9c2	-0.047113188
234	0xbcc24116	-0.023712676
235	0x40517dd6	3.2733054
236	0x40374f9d	2.8642342
237	0xbd906f42	-0.07052471
238	0x3d7bf3f7	0.06151196
239	0x40086ae4	2.131524
240	0x4067cc2a	3.6218362
241	0x3fab652d	1.3390251
242	0x406cdbcb	3.700915
243	0x3ff41d60	1.9071465
244	0x407031e1	3.7530444
245	0xbd60b29b	-0.05485783
246	0x4025d634	2.591199
247	0x4051b0e9	3.2764227
248	0x406f4096	3.738317
249	0xbf9dc290	-1.2325001
250	0x40ae7354	5.451578
251	0x40db5021	6.8535314
252	0x402b281d	2.6743233
253	0x3fc4e3a0	1.5381966
254	0x3c943334	0.018090822
255	0x407f218e	3.986423

fc2.bias f4 [4]
0	0xbf5801f5	-0.84377986
1	0xbf040957	-0.5157675
2	0xbee59991	-0.44843724
3	0xbf82d34d	-1.0220734
